data/test1/model_action.pt (torch, 28101 bytes, 11 tensors)

weight f4 [32, 2]
-0.22644114 0.6331965 0.3626883 -0.12099095 -0.25089574 0.066205606 0.716841 -0.43094712
0.37285718 0.13402207 0.55783314 0.53475755 0.31311736 0.1814089 0.33755338 0.25870553
-0.38082275 0.86527514 -0.1240927 -0.16612945 0.16063967 -0.21396358 0.2723793 0.6512416
0.54789406 -0.22147104 0.48816726 0.38273624 0.9058778 0.6438501 -0.47513536 0.44421273
0.64840215 0.307046 0.0895375 0.49319437 -0.26246524 0.7847769 -0.036854565 0.6372084
-0.28470123 0.70595556 0.635969 0.5454861 0.041609034 0.6081295 0.9875173 0.9071821
-0.24434935 0.50137275 0.6963036 -0.39476377 -0.1163187 0.35271913 0.4440737 0.19909976
0.8360386 -0.031691376 -0.25151953 0.6568084 0.10772992 0.03672096 0.059035573 0.03997723
00000000: 30e0 67be 2a19 223f 48b2 b93e 1aca f7bd
00000010: 6875 80be ce96 873d e482 373f 1aa5 dcbe
00000020: 23e7 be3e 153d 093e 27ce 0e3f dfe5 083f
00000030: eb50 a03e 41c3 393e ccd3 ac3e 0d75 843e
00000040: 33fb c2be ac82 5d3f 5024 febd d71d 2abe
00000050: ba7e 243e 4519 5bbe 4d75 8b3e c5b7 263f
00000060: c942 0c3f 4ec9 62be 0ff1 f93e 01f6 c33e
00000070: 9ce7 673f 5cd3 243f f144 f3be da6f e33e
00000080: affd 253f 2235 9d3e 705f b73d f983 fc3e
00000090: d861 86be 24e7 483f d0f4 16bd 1720 233f
000000a0: 5cc4 91be 81b9 343f ddce 223f faa4 0b3f
000000b0: 3c6e 2a3d 60ae 1b3f efcd 7c3f 163d 683f
000000c0: b736 7abe f759 003f f440 323f 7a1e cabe
000000d0: 8038 eebd 9a97 b43e a15d e33e cfe0 4b3e
000000e0: a006 563f d1ce 01bd 2bc7 80be 9824 283f
000000f0: 81a1 dc3d b868 163d 49cf 713d 2abf 233d

bias f4 [32]
-0.34659404 -0.23687297 -0.66052336 0.09773146 -0.095479965 -0.15228367 -0.008022155 0.15103185
-0.19838381 -0.086723596 -0.13814497 -0.17773566 0.06542789 0.22299114 0.07694446 -0.4808056
0.37927344 -0.17891142 -0.5682611 -0.31534114 -0.55304664 0.09051599 0.0869759 0.42823
-0.4545952 -0.49267784 -0.3449994 0.02492971 0.037231386 0.022542257 -0.027861942 -0.2981308
00000000: c674 b1be d48e 72be 0f18 29bf 6f27 c83d
00000010: 008b c3bd 40f0 1bbe 5b6f 03bc 18a8 1a3e
00000020: 2025 4bbe 249c b1bd e075 0dbe 5600 36be
00000030: 0fff 853d ca57 643e 0f95 9d3d 272c f6be
00000040: 2130 c23e 8e34 37be 8f79 11bf 6574 a1be
00000050: 7794 0dbf 7360 b93d 6c20 b23d f640 db3e
00000060: b4c0 e8be 4540 fcbe c3a3 b0be 6439 cc3c
00000070: f07f 183d 8aaa b83c ba3e e4bc 9aa4 98be

weight f4 [32, 2]
0.47678858 0.654781 -0.27678788 0.072563305 -0.2339552 0.4545373 0.34343833 0.17757033
0.7453826 -0.10608676 -0.035874546 0.122950435 0.04228439 0.08352739 0.4695157 0.3819512
-0.19304952 0.24320945 -0.28870592 -0.023456754 -0.036596715 0.018231872 -0.15795796 0.2461608
0.42244363 0.14331803 1.1531276 0.12687503 0.23894483 0.17715745 -0.44696614 0.25324228
0.8391322 0.3540991 -0.101104945 0.3476283 -0.43238115 0.92515975 0.7791744 -0.3589354
0.857813 -0.7221187 0.46315476 0.55883735 0.43733746 0.100036204 0.30428207 0.38858917
0.6149342 -0.19393963 -0.3543434 -0.0644929 0.36684236 0.4771048 0.81102884 -0.00042678724
0.28229314 0.3811805 0.45678616 0.024001464 0.12967324 0.19160554 0.56192267 0.38690543
00000000: a21d f43e ba9f 273f 24b7 8dbe 129c 943d
00000010: f491 6fbe 1db9 e83e 26d7 af3e ffd4 353e
00000020: 65d1 3e3f 0444 d9bd 30f1 12bd 70cd fb3d
00000030: 6632 2d3d 6910 ab3d 5d64 f03e 1c8f c33e
00000040: c6ae 45be e60b 793e 43d1 93be 6128 c0bc
00000050: 70e6 15bd 025b 953c bbbf 21be 9411 7c3e
00000060: 884a d83e f6c1 123e af99 933f 87eb 013e
00000070: f4ad 743e c368 353e bfd8 e4be f9a8 813e
00000080: 5ed1 563f 7a4c b53e 1c10 cfbd 56fc b13e
00000090: 1061 ddbe 45d7 6c3f f977 473f 61c6 b7be
000000a0: a299 5b3f c5dc 38bf 9f22 ed3e f70f 0f3f
000000b0: b2ea df3e c8df cc3d dcca 9b3e 29f5 c63e
000000c0: 546c 1d3f 1c98 46be 806c b5be db14 84bd
000000d0: c3d2 bb3e 1547 f43e 969f 4f3f 6ac2 dfb9
000000e0: ba88 903e 172a c33e e0df e93e b89e c43c
000000f0: 10c9 043e 3e34 443e 2ada 0f3f 7818 c63e

weight f4 [32, 32]
0.1588992 -0.47468033 -0.17996083 -0.14599656 -0.35098043 -0.11042215 -0.22348705 -0.10661501
-0.25599146 -0.8654447 -0.36046642 -0.21795122 0.02652446 -0.2514843 -0.038531415 -0.17491375
-0.38386673 -0.3276037 -0.7920018 0.11474449 0.048778493 -0.557791 -0.20501658 -0.85769826
-0.16949311 -0.24443646 0.08854501 -0.47869918 -0.29363313 -0.36551455 -0.097086675 -0.21946014
-0.041709766 -0.3379047 -0.41106796 -0.17158908 -0.6470937 0.0328667 -0.14592256 0.035472177
-0.26181453 -0.35201743 -0.51996523 -0.43343556 -0.14948352 -0.27913642 -0.12232526 -0.35983557
-0.5239402 -0.09581418 -0.5633597 -0.16495419 -0.3811377 -0.5269129 -0.45019582 -0.5306378
-0.104887746 -0.26131094 -0.034657713 -0.46076077 -0.37533885 -0.61886126 -0.34675243 -0.32807362
0.231138 -0.024779221 -0.12245547 -0.2163836 -0.2733062 0.056301653 -0.18091689 -0.2523453
-0.34849203 0.41220638 -0.23087607 -0.23980263 -0.41170698 -0.3173839 -0.08322357 0.0252835
-0.34871298 -0.29127482 -0.20884204 0.044384576 0.07691826 -0.22416814 -0.36990306 0.17457062
0.0045186398 -0.23512882 0.30518657 -0.1390888 -0.250565 -0.39490446 -0.28015792 -0.10986198
-0.07745073 -0.05712065 -0.043140918 -0.1667298 -0.05082257 0.050443247 0.100172445 -0.08331535
-0.052985713 -0.17934117 0.045293927 -0.074997805 -0.04527564 0.12931359 -0.15712476 0.12109728
-0.18395224 0.14349799 0.05333938 0.0706425 -0.14051212 -0.066345796 -0.10523331 -0.13335434
-0.1724612 -0.15740569 0.06458473 0.08983192 -0.02907069 0.049028013 0.115746304 -0.0598822
-0.031571608 -0.35676625 -0.2092828 -0.045130946 -0.239527 0.00447461 -0.15751404 -0.24170187
-0.13687497 -0.55361056 -0.30336282 -0.11381495 -0.3094669 -0.221269 -0.36022285 -0.14482784
-0.32852107 -0.3934383 -0.30389693 -0.18459532 -0.07227917 -0.10603219 -0.18321992 -0.5323178
0.10880404 -0.2284058 0.23478404 -0.119528785 -0.44104463 -0.48657638 -0.25479993 -0.1642025
0.28727555 -0.3571907 -0.24978921 -0.26343593 -0.4966533 0.060123324 -0.1653431 -0.10259577
-0.16797942 -0.708528 -0.437142 -0.38612717 -0.049070466 -0.30815682 -0.35455224 -0.10718646
-0.46666273 -0.35881236 -0.7498475 -0.2003769 -0.14869219 -0.5320039 -0.27907914 -0.74687475
0.02894516 -0.05569047 0.06269785 -0.3728711 -0.23807058 -0.35042977 -0.2318976 -0.44833353
0.003105258 -0.3356921 -0.12407062 -0.029029269 -0.23034884 -0.07254566 -0.38347346 -0.062482506
-0.19665179 -0.60409516 -0.5095975 -0.3782868 -0.35369647 -0.27835777 -0.39684236 -0.4004621
-0.32742628 -0.20095357 -0.74462926 0.11599535 0.36518514 -0.29866832 -0.14754567 -0.4586478
0.15421116 -0.23401386 -0.028418455 -0.41772884 -0.43965137 -0.3228278 -0.19636668 -0.26127216
0.13130926 -0.09711413 0.06078969 0.15576626 0.045140628 0.081879064 -0.11520021 -0.02091209
-0.09004071 -0.2009741 0.06384285 -0.038533643 0.22632429 -0.07758 -0.07738663 0.10499044
0.21919295 -0.14038661 -0.07222355 0.05990961 0.12048272 0.0240051 0.06638092 0.08640331
0.08929648 -0.108894154 -0.15313846 0.119450524 -0.13253373 -0.0730112 -0.1282689 -0.13399099
00000000: 79b6 223e 4d09 f3be a747 38be 1f80 15be
00000010: b5b3 b3be 0225 e2bd cad9 64be f858 dabd
00000020: 5011 83be c98d 5dbf 0e8f b8be 9b2e 5fbe
00000030: d349 d93c 8dc2 80be 1ed3 1dbd 971c 33be
00000040: 2e8a c4be acbb a7be a1c0 4abf 29ff ea3d
00000050: f5cb 473d 64cb 0ebf deef 51be 1d92 5bbf
00000060: 9a8f 2dbe 8d4d 7abe 1657 b53d 0f18 f5be
00000070: 1557 96be b924 bbbe 61d5 c6bd 29ba 60be
00000080: dcd7 2abd d801 adbe 8077 d2be 0cb5 2fbe
00000090: efa7 25bf 3c9f 063d b96c 15be 464b 113d
000000a0: 8e0c 86be a13b b4be 711c 05bf 44eb ddbe
000000b0: 3512 19be f8ea 8ebe aa85 fabd 5e3c b8be
000000c0: f220 06bf 3a3a c4bd 5738 10bf c0e9 28be
000000d0: 7b24 c3be c4e3 06bf 1180 e6be e1d7 07bf
000000e0: 63cf d6bd 8cca 85be 3ff5 0dbd d6e8 ebbe
000000f0: 6a2c c0be b16d 1ebf 8989 b1be 44f9 a7be
00000100: 71af 6c3e cbfd cabc efc9 fabd aa93 5dbe
00000110: caee 8bbe 909c 663d 4742 39be 6733 81be
00000120: 8c6d b2be b70c d33e c76a 6cbe d28e 75be
00000130: 42cb d2be 2480 a2be 1e71 aabd 581f cf3c
00000140: 828a b2be f921 95be b0da 55be 9acc 353d
00000150: 5287 9d3d 558c 65be ef63 bdbe a4c2 323e
00000160: 1911 943b 9cc5 70be 6a41 9c3e 4b6d 0ebe
00000170: 0e4a 80be eb30 cabe dc70 8fbe 51ff e0bd
00000180: 7d9e 9ebd 58f7 69bd 88b4 30bd 37bb 2abe
00000190: 542b 50bd 949d 4e3d 3627 cd3d 3da1 aabd
000001a0: 8c07 59bd 36a5 37be 2086 393d 7398 99bd
000001b0: f372 39bd c86a 043e 50e5 20be da01 f83d
000001c0: fa5d 3cbe 23f1 123e 657a 5a3d 04ad 903d
000001d0: 69e2 0fbe 4ee0 87bd 9084 d7bd 0a8e 08be
000001e0: ab99 30be f52e 21be 0045 843d ccf9 b73d
000001f0: a825 eebc 99d1 483d 660c ed3d 0a47 75bd
00000200: 3b51 01bd 11aa b6be 3b4e 56be 3adb 38bd
00000210: 9146 75be c09f 923b 5c4b 21be b280 77be
00000220: f428 0cbe 6cb9 0dbf 5f52 9bbe d017 e9bd
00000230: 7272 9ebe 5794 62be 216f b8be c04d 14be
00000240: ea33 a8be bf70 c9be 6198 9bbe 8e06 3dbe
00000250: 1a07 94bd 6827 d9bd 019e 3bbe fb45 08bf
00000260: a7d4 de3d 36e3 69be 3a6b 703e 82cb f4bd
00000270: 9ad0 e1be 8a20 f9be 2375 82be b324 28be
00000280: c815 933e b3e1 b6be bec8 7fbe 13e1 86be
00000290: 5749 febe e043 763d b44f 29be bb1d d2bd
000002a0: cc02 2cbe 1762 35bf 14d1 dfbe 76b2 c5be
000002b0: 1dfe 48bd bbc6 9dbe df87 b5be 9384 dbbd
000002c0: 6bee eebe 41b6 b7be 01f6 3fbf 9a2f 4dbe
000002d0: c442 18be 6831 08bf 76e3 8ebe 2f33 3fbf
000002e0: 661e ed3c b11b 64bd bb67 803d f6e8 bebe
000002f0: c6c8 73be 886b b3be 9176 6dbe f98b e5be
00000300: 9681 4b3b d6df abbe bd18 febd cace edbc
00000310: 91e0 6bbe d292 94bd a256 c4be a8ed 7fbd
00000320: 165f 49be fba5 1abf fb74 02bf cfae c1be
00000330: b417 b5be e984 8ebe ec2e cbbe 5e09 cdbe
00000340: 6ba4 a7be c6c6 4dbe 06a0 3ebf f88e ed3d
00000350: 8cf9 ba3e 0eeb 98be 3616 17be e2d3 eabe
00000360: 88e9 1d3e 54a1 6fbe d2cd e8bc 8ee0 d5be
00000370: fc19 e1be af49 a5be 5914 49be 77c5 85be
00000380: ef75 063e c6e3 c6bd 9cfe 783d 3181 1f3e
00000390: 61e5 383d 36b0 a73d 16ee ebbd d54f abbc
000003a0: 4467 b8bd 28cc 4dbe 0ac0 823d 74d5 1dbd
000003b0: 8ec1 673e 43e2 9ebd e27c 9ebd 3a05 d73d
000003c0: 1e74 603e 82c1 0fbe f1e9 93bd c763 753d
000003d0: a5bf f63d 58a6 c43c b8f2 873d 38f4 b03d
000003e0: 13e1 b63d e603 dfbd 54d0 1cbe 7aa2 f43d
000003f0: ecb6 07be e586 95bd ec58 03be ef34 09be

bias f4 [32]
-0.102133006 -0.30462536 0.13924582 -0.10682198 -0.12132745 0.1300538 -0.054453965 -0.014952458
0.08456487 0.0956892 -0.07326661 -0.1938078 -0.061604165 -0.07091627 -0.03114408 0.10588431
-0.05507317 -0.171636 -0.12823524 -0.3115989 -0.013476944 -0.17986532 -0.2882961 0.019501304
-0.06590447 0.17926814 -0.2594628 -0.23848301 -0.04010528 -0.0994472 -0.14407024 -0.12917808
00000000: 1c2b d1bd dbf7 9bbe 7596 0e3e 7bc5 dabd
00000010: 877a f8bd d32c 053e 1f0b 5fbd 28fb 74bc
00000020: 5930 ad3d b3f8 c33d ce0c 96bd 8d75 46be
00000030: a654 7cbd 8d3c 91bd df21 ffbc e0d9 d83d
00000040: 6894 61bd 59c1 2fbe 1950 03be e489 9fbe
00000050: 66ce 5cbc 9d2e 38be 8c9b 93be 33c1 9f3c
00000060: ecf8 86bd 1192 373e 4fd8 84be e434 74be
00000070: 6f45 24bd f9aa cbbd 2687 13be 4247 04be

weight f4 [32, 32]
-0.01540847 0.5246944 0.5076879 0.69757324 0.42933285 -0.12041873 0.7884752 1.3138249
0.7609791 -0.49556088 0.49717486 0.70208377 0.6067384 0.6143526 0.56460196 0.42114237
0.5809673 0.9986174 -0.0010350051 -0.064349905 -0.5610935 0.93734646 0.4377338 0.08491492
-0.036008336 0.82992226 -0.2336705 0.38011983 0.509773 0.7142949 0.9218792 0.2456252
0.07565437 0.4759193 0.43961173 0.8639993 0.42656645 -0.09519498 0.8279751 0.9587581
0.6281832 -0.10566527 0.5297123 0.8166258 0.5266561 0.5212655 0.44953594 0.6142985
0.29440042 0.74171126 0.32089072 -0.19401221 -0.17554738 0.5083132 0.55063057 0.012708081
-0.016477225 0.54350936 -0.1521254 0.4151842 0.68280894 0.5557926 0.8853923 0.8109866
0.19105278 0.40196615 0.4684721 0.9233373 0.38910216 -0.021941751 0.6130728 1.0762534
0.70357114 0.65689933 0.5021053 0.82930243 0.5578593 0.7218261 0.7230109 0.37901306
0.42884183 0.93786436 0.18927132 -0.083345175 0.14649852 0.76356447 0.801526 0.53636545
-0.0066349017 0.47160843 0.19652505 0.32166263 0.68114924 0.6917644 0.7086072 0.5185257
-0.07231139 -0.003932695 -0.16918285 0.110268176 0.00982292 0.041034847 0.11763421 -0.1394119
0.07364599 -0.29498434 -0.02725921 0.11869522 0.06726938 -0.09645485 0.08655468 -0.1146442
-0.19429274 -0.027381899 -0.13310094 0.1109154 0.075595394 0.09761264 -0.15071948 0.04351442
-0.021989115 -0.0030162365 -0.06665674 -0.015870042 0.1369188 -0.21332821 -0.046683025 0.011593441
0.38062292 0.53585607 0.51835907 1.0778451 0.4351484 0.14299543 1.1728129 1.0230805
0.47320312 -0.12329101 0.37778866 0.46367252 0.9867592 1.0011202 1.0269506 0.18637134
0.08256112 0.79590863 0.33634168 0.03250714 0.115957946 0.08386272 0.8228842 -0.0376595
0.063246384 0.68869036 0.29979786 -0.00704098 0.7812286 0.49316713 0.9387566 0.38249618
0.14632645 0.36165652 0.7233871 0.9090113 0.5709936 0.121828154 0.853087 1.2940898
0.67307276 0.1281821 0.539397 0.8694296 0.80127555 0.7104525 0.90032893 0.38864166
0.4036995 0.9694074 0.2733667 0.04806392 0.09706431 0.6865596 0.7825322 0.06500161
0.040625706 0.80974114 0.034938946 0.27543622 0.9032951 0.51173455 1.1339939 0.36433324
0.1114665 0.78423834 0.5657791 1.0655649 0.94111335 -0.13401794 1.0526997 0.98895085
0.74478495 0.017026398 0.53008914 0.9443787 0.8991744 0.95301586 0.8257994 0.54447806
0.53482765 0.81440896 0.18408616 -0.18707186 0.19940013 0.8207788 0.83724415 -0.0915654
-0.17164691 0.89431214 0.043198038 0.62030613 0.77688515 0.74118483 1.0914481 0.7497005
-0.16380827 -0.04021095 -0.1005027 -0.11725006 0.17686574 0.10568054 0.06965059 -0.04432225
-0.08358571 -0.09761158 0.08102187 -0.14136814 0.14023967 0.15863182 -0.024340475 -0.12743366
0.10111435 -0.1374508 0.05826813 0.1776771 -0.12361533 0.17651556 0.0024224382 -0.11568867
-0.14538854 0.028640758 -0.09260971 0.077072814 0.035788313 -0.115905896 -0.017564839 -0.13049626
00000000: cf73 7cbc 5f52 063f d6f7 013f 2994 323f
00000010: 84d1 db3e 189e f6bd 83d9 493f 6a2b a83f
00000020: 87cf 423f 28ba fdbe b48d fe3e c3bb 333f
00000030: 3553 1b3f 3646 1d3f c189 103f f99f d73e
00000040: 46ba 143f 64a5 7f3f 02a9 87ba e2c9 83bd
00000050: d3a3 0fbf f0f5 6f3f a51e e03e e0e7 ad3d
00000060: 7a7d 13bd c975 543f 5247 6fbe 119f c23e
00000070: 7c80 023f 08dc 363f 4600 6c3f 2c85 7b3e
00000080: aef0 9a3d b2ab f33e ca14 e13e 0f2f 5d3f
00000090: eb66 da3e 96f5 c2bd 2df6 533f 2c71 753f
000000a0: 9dd0 203f 0867 d8bd 3a9b 073f 630e 513f
000000b0: efd2 063f a871 053f 9329 e63e ab42 1d3f
000000c0: a7bb 963e cae0 3d3f ca4b a43e 23ab 46be
000000d0: b1c2 33be d020 023f 20f6 0c3f 8e35 503c
000000e0: 3ffb 86bc 6e23 0b3f c3c6 1bbe 0693 d43e
000000f0: 91cc 2e3f 6d48 0e3f 12a9 623f d19c 4f3f
00000100: 57a3 433e 82ce cd3e 93db ef3e d55f 6c3f
00000110: 6638 c73e 30bf b3bc 57f2 1c3f acc2 893f
00000120: 3d1d 343f 8e2a 283f f989 003f 2a4d 543f
00000130: decf 0e3f 98c9 383f 3e17 393f 000e c23e
00000140: 2891 db3e e117 703f 57d0 413e e0b0 aabd
00000150: b503 163e f678 433f cf30 4d3f 3f4f 093f
00000160: 9769 d9bb a976 f13e dd3d 493e f7b0 a43e
00000170: cc5f 2e3f 7917 313f 4867 353f 1abe 043f
00000180: fe17 94bd d6dd 80bb 453e 2dbe 48d4 e13d
00000190: 50f0 203c 2814 283d 34ea f03d fec1 0ebe
000001a0: b5d3 963d 3008 97be b54e dfbc 7b16 f33d
000001b0: 87c4 893d 1f8a c5bd 9443 b13d 94ca eabd
000001c0: adf4 46be 0150 e0bc 9d4b 08be 9d27 e33d
000001d0: c2d1 9a3d 23e9 c73d 3556 1abe 2d3c 323d
000001e0: 8422 b4bc 0dac 45bb 5483 88bd e401 82bc
000001f0: 7134 0c3e b672 5abe b336 3fbd 6af2 3d3c
00000200: 02e1 c23e dd2d 093f 2eb3 043f d4f6 893f
00000210: c5cb de3e 656d 123e bc1e 963f 4df4 823f
00000220: ae47 f23e ff7f fcbd 846d c13e 7c66 ed3e
00000230: 409c 7c3f b524 803f 1e73 833f 21d8 3e3e
00000240: ce15 a93d abc0 4b3f fa34 ac3e 3526 053d
00000250: 5c7b ed3d 38c0 ab3d 8aa8 523f d940 1abd
00000260: 5287 813d 034e 303f 1b7f 993e 05b8 e6bb
00000270: 99fe 473f 6780 fc3e 5a52 703f 8ad6 c33e
00000280: 9ad6 153e 0b2b b93e e62f 393f f7b4 683f
00000290: a32c 123f 0a81 f93d e963 5a3f bca4 a53f
000002a0: 7f4e 2c3f 2b42 033e ec15 0a3f f092 5e3f
000002b0: 6520 4d3f 37e0 353f f57b 663f 0afc c63e
000002c0: b3b1 ce3e 152b 783f b8f6 8b3e acde 443d
000002d0: a7c9 c63d 5fc2 2f3f 0854 483f 901f 853d
000002e0: 2467 263d 324b 4f3f 241c 0f3d fa05 8d3e
000002f0: 593e 673f 0901 033f b626 913f e389 ba3e
00000300: 8c48 e43d d8c3 483f e6d6 103f 6e64 883f
00000310: ceec 703f 003c 09be ddbe 863f e22b 7d3f
00000320: 3aaa 3e3f f27a 8b3c ecb3 073f cdc2 713f
00000330: 4b30 663f d9f8 733f 9767 533f ea62 0b3f
00000340: 77ea 083f 1b7d 503f 1581 3c3e c48f 3fbe
00000350: 8c2f 4c3e 8f1e 523f a255 563f a486 bbbd
00000360: 35c4 2fbe a4f1 643f 6df0 303d 62cc 1e3f
00000370: f2e1 463f 4abe 3d3f 92b4 8b3f 5fec 3f3f
00000380: 5bbd 27be 3db4 24bd 5cd4 cdbd cd20 f0bd
00000390: 4b1c 353e 0a6f d83d f8a4 8e3d 3f8b 35bd
000003a0: fc2e abbd 94e8 c7bd cbee a53d cfc2 10be
000003b0: fd9a 0f3e 6170 223e ad65 c7bc f87d 02be
000003c0: 0a15 cf3d e7bf 0cbe 90aa 6e3d fcf0 353e
000003d0: 092a fdbd 7fc0 343e c5c1 1e3b 2eee ecbd
000003e0: bce0 14be 06a0 ea3c 29aa bdbd 5ad8 9d3d
000003f0: c496 123d 1260 edbd 23e4 8fbc d0a0 05be

weight f4 [32, 32]
-0.22791837 -0.21636488 0.16515486 -0.0978753 0.08981737 0.027884366 -0.22343208 0.11551045
-0.007871113 0.20433755 -0.12927714 -0.09039304 -0.06556305 -0.20184737 0.078248255 -0.04569099
-0.1796832 -0.035291743 0.08585784 -0.14318828 -0.0020254552 0.17442636 -0.071007736 0.15730293
-0.15729891 0.14461415 -0.08127159 -0.20775867 -0.11063878 -0.069331445 -0.002228707 -0.023759749
0.17998043 0.18586363 0.25822115 0.2770782 0.041858707 0.18489043 0.12985606 -0.049420055
0.12773544 0.3204539 0.31963652 0.073325515 0.065035544 0.04088072 0.21967968 0.2830506
0.14319573 0.26242864 0.10004093 -0.13076623 -0.03869565 -0.09205366 0.062727764 0.21931292
0.040961128 -0.19453795 0.008748773 0.097005375 0.22626464 0.22477569 0.114927486 0.1587118
-0.18966244 -0.008065448 -0.021664865 0.1189471 -0.12764628 0.08453753 -0.19617039 -0.16983812
-0.002628446 -0.08258071 0.037489988 -0.12011491 0.011922062 -0.18310276 0.15440047 0.12502642
0.04435222 -0.1123911 0.06534418 0.06152477 0.026226968 0.09483446 -0.094065964 -0.0056380606
-0.04959448 0.053358544 0.15271714 0.03822924 -0.13050286 -0.035155382 -0.1397536 -0.045387395
0.17655925 -0.14932556 0.12692118 0.041123733 -0.15590052 0.06950123 0.23555523 0.04017749
0.21395811 0.42069426 -0.1254644 0.02857491 -0.1604791 0.3126626 0.1267881 0.08731216
0.0015572394 0.18041731 -0.10733634 -0.16534014 0.0022461712 -0.050938275 -0.09819043 0.08628232
-0.020346168 0.25170422 0.12127661 -0.068670146 0.28748846 -0.1493939 -0.15768921 0.067212984
0.09328933 0.47404912 0.18761636 0.09099981 -0.107571736 0.21725649 0.07048657 0.17168559
0.17066164 0.22748101 0.30752566 -0.15094693 0.050657835 0.033995505 0.25189045 0.48491552
0.26749128 0.22440237 0.14553384 0.064650804 -0.13461341 0.24663647 -0.050313253 0.6050869
0.033620328 0.070274815 -0.15524742 -0.16162063 0.4278913 0.16186056 -0.0039512515 0.086658455
0.009986004 0.29686686 0.08930738 -0.057173617 0.2884888 0.079263344 0.03573661 0.14940755
0.13420258 -0.0344717 0.27032337 0.10649746 0.044978637 -0.14037439 0.20677666 0.21686268
0.20326763 0.20275038 -0.017623616 0.76961607 0.021471756 0.22873497 0.31835872 0.15441583
0.0744409 0.2930265 0.28422624 0.36030152 0.09709385 0.018932795 -0.12039609 0.08364284
-0.28789535 0.100368075 -0.57216424 0.15088162 0.04319397 -0.2491255 -0.033449467 -0.012410641
-0.16377896 -0.62133425 0.09420477 -0.14436318 -0.059753936 -0.3243414 -0.24151438 -0.26144323
-0.3524219 -0.1759 -0.10297344 -0.032030515 0.009872839 -0.63561857 -0.08218681 -0.3197081
-0.20940982 -0.60993445 0.035537437 -0.111906365 -0.25041017 -0.38025314 -0.00016728044 -0.048819188
-0.047464818 0.27255034 0.15902887 -0.09291626 0.110709056 0.19334424 -0.21528414 -0.105266325
0.011106343 0.060590636 0.33977124 0.22905335 0.14905435 -0.12014327 0.012389494 0.33057567
0.063513756 -0.07041827 -0.09802003 0.44146007 -0.0019888978 0.15745701 0.18839774 0.25210965
-0.017341135 0.39169735 0.19089961 0.087764435 0.25233516 0.1334993 -0.16364011 0.14432333
00000000: 6f63 69be c18e 5dbe 5b1e 293e d872 c8bd
00000010: 2bf2 b73d c16d e43c 61cb 64be be90 ec3d
00000020: d7f5 00bc dd3d 513e 3a61 04be fc1f b9bd
00000030: ec45 86bd 14b1 4ebe 9f40 a03d 7a26 3bbd
00000040: dffe 37be 138e 10bd 3cd6 af3d f39f 12be
00000050: 80bd 04bb d39c 323e 816c 91bd 0514 213e
00000060: f712 21be bb15 143e b871 a6bd b0be 54be
00000070: 9696 e2bd a5fd 8dbd 800f 12bb cea3 c2bc
00000080: ca4c 383e 0953 3e3e 9035 843e 32dd 8d3e
00000090: 0974 2b3d eb53 3d3e fdf8 043e af6c 4abd
000000a0: 14cd 023e 8912 a43e 66a7 a33e b02b 963d
000000b0: 5b31 853d 8b72 273d b6f3 603e 02ec 903e
000000c0: e7a1 123e 0c5d 863e 42e2 cc3d 95e7 05be
000000d0: 547f 1ebd a186 bcbd 6a77 803d 9193 603e
000000e0: dbc6 273d f534 47be 0357 0f3c c1aa c63d
000000f0: ebb1 673e 992b 663e 1a5f eb3d 5985 223e
00000100: df36 42be f124 04bc 847a b1bc 8a9a f33d
00000110: b5b5 02be 0322 ad3d e4e0 48be 0bea 2dbe
00000120: 0242 2cbb 1320 a9bd 1a8f 193d cefe f5bd
00000130: c154 433c 4a7f 3bbe 281b 1e3e ed06 003e
00000140: acaa 353d 4e2d e6bd 2bd3 853d 6601 7c3d
00000150: f0d9 d63c 9238 c23d a8a5 c0bd 7bbf b8bb
00000160: 9523 4bbd 7d8e 5a3d e261 1c3e 4396 1c3d
00000170: 8ba2 05be 17ff 0fbd 911b 0fbe 22e8 39bd
00000180: f3cb 343e cde8 18be a0f7 013e 5c71 283d
00000190: 63a4 1fbe a956 8e3d 6435 713e 2791 243d
000001a0: d617 5b3e 3d65 d73e bd79 00be ee15 ea3c
000001b0: a254 24be 5015 a03e bdd4 013e b8d0 b23d
000001c0: 491c cc3a 51bf 383e 28d3 dbbd ed4e 29be
000001d0: 8034 133b a7a4 50bd 1018 c9bd c9b4 b03d
000001e0: 02ad a6bc 60df 803e df5f f83d efa2 8cbd
000001f0: b031 933e b7fa 18be 4879 21be f6a6 893d
00000200: 7a0e bf3d 91b6 f23e 811e 403e 1c5e ba3d
00000210: 924e dcbd 7c78 5e3e 435b 903d 59ce 2f3e
00000220: edc1 2e3e c8f0 683e 0174 9d3e d591 1abe
00000230: 977e 4f3d df3e 0b3d c9f7 803e d946 f83e
00000240: 9ef4 883e bcc9 653e d306 153e a467 843d
00000250: 19d8 09be 458e 7c3e 4515 4ebd fae6 1a3f
00000260: 78b5 093d 3eec 8f3d 2ef9 1ebe e17f 25be
00000270: 9214 db3e c6be 253e 8079 81bb fd79 b13d
00000280: 569c 233c effe 973e cae6 b63d e22e 6abd
00000290: ceb4 933e d254 a23d 8d60 123d 4bfe 183e
000002a0: 676c 093e 3332 0dbd d367 8a3e 571b da3d
000002b0: 853b 383d 4ebe 0fbe 43bd 533e 4011 5e3e
000002c0: 6425 503e cc9d 4f3e 675f 90bc 8f05 453f
000002d0: 89e5 af3c 8039 6a3e eaff a23e 2f1f 1e3e
000002e0: 7874 983d 9207 963e 1a86 913e 7179 b83e
000002f0: 24d9 c63d f318 9b3c 3a92 f6bd f04c ab3d
00000300: 0567 93be c78d cd3d 5b79 12bf b680 1a3e
00000310: 29ec 303d c11a 7fbe 4f02 09bd 0056 4bbc
00000320: acb5 27be c30f 1fbf 6eee c03d f1d3 13be
00000330: 8bc0 74bd 1310 a6be 8c4f 77be e3db 85be
00000340: a570 b4be 211f 34be bde3 d2bd 6e32 03bd
00000350: b0c1 213c e6b7 22bf 8f51 a8bd c8b0 a3be
00000360: 876f 56be aa24 1cbf b48f 113d 2a2f e5bd
00000370: c335 80be 8ab0 c2be 0068 2fb9 a1f6 47bd
00000380: 786a 42bd b88b 8b3e 77d8 223e e14a bebd
00000390: 6ebb e23d 08fc 453e 7273 5cbe df95 d7bd
000003a0: 61f7 353c e32d 783d 7ff6 ad3e f68c 6a3e
000003b0: b4a1 183e ad0d f6bd 4efd 4a3c 3741 a93e
000003c0: 8013 823d 7437 90bd babe c8bd 0e07 e23e
000003d0: 2b58 02bb 693c 213e 56eb 403e 8414 813e
000003e0: ff0e 8ebc 8e8c c83e 307b 433e d7bd b33d
000003f0: 1332 813e 0ab4 083e 4691 27be 7fc9 133e

bias f4 [32]
-0.55177027 0.28986216 -0.13224147 0.21142429 -0.24740317 -0.13986951 0.52443784 -0.08946701
-0.025798224 -0.059922613 -0.11242591 0.11540588 0.16258322 0.55445594 0.43589386 -0.14815025
-0.031455148 0.08970704 -0.03820523 -0.047004916 -0.4558989 -0.48521602 -0.58228874 -0.18167399
0.57160485 -0.123056106 -0.54437757 -0.14618522 0.3904447 -0.14883526 -0.07563681 -0.02914409
00000000: d140 0dbf d068 943e 4f6a 07be 9c7f 583e
00000010: 4257 7dbe f439 0fbe 8f41 063f 7b3a b7bd
00000020: cc56 d3bc 6a71 75bd 8e3f e6bd eb59 ec3d
00000030: 377c 263e d3f0 0d3f 7b2d df3e b3b4 17be
00000040: 1dd7 00bd 53b8 b73d 167d 1cbd 3a88 40bd
00000050: 956b e9be 3c6e f8be e010 15bf bf08 3abe
00000060: b254 123f d704 fcbd 545c 0bbf 94b1 15be
00000070: 5ee8 c73e 4568 18be 79e7 9abd 96bf eebc

weight f4 [32, 32]
0.06552685 0.12703207 -0.00030557494 0.07325747 -0.07435038 0.1373299 0.17751175 0.08656059
-0.2623099 -0.26413158 -0.20365384 0.012880852 -0.051716767 0.0029493487 -0.025711812 0.14551635
0.0108971195 0.07663963 0.03629847 0.14929114 -0.16238461 0.0830348 -0.105825044 -0.13698947
-0.032800153 0.11073456 -0.15467845 0.027141765 -0.14950375 0.050971635 0.112133786 0.02065315
0.02600327 0.33472857 -1.2462767 0.019171773 -0.1898382 0.21162277 0.60749155 -0.15054107
-0.038710397 -1.0126392 0.29708007 -0.1275342 0.061479464 0.033258513 0.5576993 -0.12772045
-1.0471103 0.1557853 -0.08771703 1.0712711 0.15494497 -0.25799137 -0.0629615 -0.17267147
-0.07152917 -0.3757556 -0.0091494 -0.11151216 -1.2688596 0.108039685 -0.060847238 0.1724636
0.012995534 -0.08073111 0.134942 0.07737841 -0.019600464 0.13352774 -0.037434533 -0.040932793
-0.15361637 -0.14381507 -0.11484305 0.07943225 0.1371949 -0.10246127 0.043905854 -0.27507368
0.1535119 0.121671215 0.03405386 -0.051498216 0.10634072 0.21793477 0.10621426 -0.10142566
-0.13977557 -0.14840795 -0.041744903 -0.011075492 0.11153633 -0.18413696 0.11740796 -0.15558773
0.12741643 -0.21920894 -0.18687816 0.072526574 -0.12313242 -0.5178282 -0.37675717 -0.032799132
-0.43083745 -0.62101275 -0.19057348 -0.0027171532 -0.21316388 -0.118355654 0.15056749 -0.24564165
-0.21606185 -0.28050625 0.08626457 0.38607237 -0.02006793 0.5602576 -0.105489016 -0.2268432
-0.55787534 0.14013962 0.017808046 0.03435488 -0.45176426 0.24311797 -0.05361861 -0.09645368
-0.013951401 0.24581149 -0.9659143 0.14920337 -0.19194889 0.099340945 -0.1495889 -0.14022826
0.18848953 -0.6357703 -0.12593374 -0.12209863 -0.059068207 -0.2794789 -0.24278255 0.4018158
-0.3367956 0.016799135 -0.013254795 1.4505278 -0.08094026 0.32357502 -0.17964254 0.75372905
-0.6712839 -0.2610707 0.027360618 -0.21788824 0.23683593 0.12121171 0.028553843 -0.14462857
0.36591434 0.49609932 0.43602306 0.0627327 0.43792212 0.34662756 0.70167947 -0.056856677
0.6223886 0.41062492 0.27735427 -0.16135661 -0.046238333 0.6613944 0.47174224 0.18868399
0.44951102 0.3922924 0.053215098 0.0035643994 -0.11103489 -0.21301758 0.54166114 0.25037542
0.0976477 -0.09854371 0.24066873 0.4047761 0.48808098 0.51453525 -0.17008711 0.25723854
0.36221302 -0.16107267 0.73928785 -0.091011114 0.08151941 0.20406696 -0.20157968 -0.01437903
0.29305017 0.64653534 -0.042197563 -0.002870285 -0.38364512 0.49178743 0.034261394 -0.6380284
0.49256486 0.34871957 -0.19115473 -0.7235325 -0.15201432 -1.1928519 -0.030421125 -0.1551352
0.09270717 -1.5267874 0.47217703 -0.01844475 0.62729234 -0.0538707 -0.1515015 0.0807273
0.5036941 0.37857518 0.37068737 -0.009403894 0.46759012 0.299156 0.74574625 0.10477801
0.5538153 0.41569418 0.53142 0.06968096 -0.08627365 0.54860413 0.6671795 0.36779636
0.269377 0.7710765 -0.08880259 0.47499925 -0.06957453 -0.5173724 0.4328703 0.26393068
0.37067968 -0.33183044 0.41047642 0.3647551 0.5949357 0.6010875 0.12733005 0.5861043
00000000: f132 863d b214 023e 9335 a0b9 0308 963d
00000010: 0345 98bd 36a0 0c3e a4c5 353e ae46 b13d
00000020: 7c4d 86be 413c 87be a28a 50be 360a 533c
00000030: f6d4 53bd dc49 413b 94a1 d2bc 3d02 153e
00000040: d589 323c 3df5 9c3d b4ad 143d c7df 183e
00000050: 2748 26be 260e aa3d cdba d8bd f846 0cbe
00000060: 7459 06bd cdc8 e23d 0764 1ebe 6858 de3c
00000070: 8317 19be a2c7 503d 66a6 e53d cb30 a93c
00000080: cf04 d53c 8b61 ab3e ff85 9fbf 1f0e 9d3c
00000090: f264 42be a4b3 583e 9184 1b3f 7027 1abe
000000a0: cb8e 1ebd 299e 81bf e11a 983e 5398 02be
000000b0: e4d1 7b3d 143a 083d 62c5 0e3f 26c9 02be
000000c0: b607 86bf 2f86 1f3e fca4 b3bd 691f 893f
000000d0: e5a9 1e3e 7217 84be f5f1 80bd cad0 30be
000000e0: e37d 92bd 0a63 c0be 5de7 15bc 7d60 e4bd
000000f0: fe69 a2bf e943 dd3d f43a 79bd 4c9a 303e
00000100: 38eb 543c 5a56 a5bd 3c2e 0a3e 9278 9e3d
00000110: 2791 a0bc 7fbb 083e f454 19bd 25a9 27bd
00000120: 9c4d 1dbe 4244 13be d532 ebbd 60ad a23d
00000130: d27c 0c3e 37d7 d1bd a0d6 333d 75d6 8cbe
00000140: 3932 1d3e c22e f93d 0f7c 0b3d cbef 52bd
00000150: 2ac9 d93d 4b2a 5f3e dd86 d93d 42b8 cfbd
00000160: 5421 0fbe 41f8 17be b4fc 2abd fb75 35bc
00000170: 296d e43d 668e 3cbe 9673 f03d 6452 1fbe
00000180: 7479 023e 4f78 60be fd5c 3fbe d088 943d
00000190: da2c fcbd 6490 04bf 51e6 c0be 6258 06bd
000001a0: ba96 dcbe b1fa 1ebf b225 43be 4412 32bb
000001b0: a247 5abe 7364 f2bd 5d2e 1a3e 7c89 7bbe
000001c0: 513f 5dbe 849e 8fbe 7bab b03d 47ab c53e
000001d0: 8065 a4bc 0b6d 0f3f a00a d8bd 9549 68be
000001e0: ebd0 0ebf c380 0f3e 2ee2 913c b4b7 0c3d
000001f0: a54d e7be ebf3 783e 309f 5bbd 8289 c5bd
00000200: 6b94 64bc 02b6 7b3e 2946 77bf c5c8 183e
00000210: 408e 44be 4473 cb3d d52d 19be ff97 0fbe
00000220: 6603 413e d8c1 22bf c6f4 00be d90e fabd
00000230: 81f1 71bd dc17 8fbe fd9b 78be cdba cd3e
00000240: 7970 acbe 579e 893c a42a 59bc e5aa b93f
00000250: 02c4 a5bd a0ab a53e 37f4 37be 63f4 403f
00000260: 43d9 2bbf 0fab 85be 6023 e03c 181e 5fbe
00000270: 1e85 723e d83d f83d c0e9 e93c 8319 14be
00000280: 2059 bb3e bb00 fe3e 6a3e df3e 007a 803d
00000290: 5437 e03e 2b79 b13e 44a1 333f 8ce2 68bd
000002a0: dc54 1f3f 6e3d d23e 6101 8e3e ab3a 25be
000002b0: 6864 3dbd 2551 293f 3388 f13e 6036 413e
000002c0: 4f26 e63e 8dda c83e 13f8 593d b398 693b
000002d0: 4366 e3bd 4821 5abe 4eaa 0a3f 3531 803e
000002e0: 84fb c73d 49d1 c9bd dd71 763e d03e cf3e
000002f0: c0e5 f93e 95b8 033f 512b 2ebe c5b4 833e
00000300: fc73 b93e 3cf0 24be f841 3d3f 0964 babd
00000310: a6f3 a63d eef6 503e e76a 4ebe 0696 6bbc
00000320: ac0a 963e 5783 253f 5ad7 2cbd 641b 3cbb
00000330: 226d c4be 90cb fb3e ad55 0c3d d455 23bf
00000340: 7631 fc3e 5f8b b23e 11be 43be 6d39 39bf
00000350: a4a9 1bbe 5faf 98bf b935 f9bc c3db 1ebe
00000360: 42dd bd3d c56d c3bf 30c1 f13e 7219 97bc
00000370: 3b96 203f 86a7 5cbd 3623 1bbe 5b54 a53d
00000380: 19f2 003f 9bd4 c13e bcca bd3e ca12 1abc
00000390: f967 ef3e fa2a 993e 3ae9 3e3f da95 d63d
000003a0: d7c6 0d3f ded5 d43e 240b 083f e4b4 8e3d
000003b0: 3db0 b0bd 5271 0c3f 47cc 2a3f ce4f bc3e
000003c0: c8eb 893e 4565 453f 22de b5bd 1a33 f33e
000003d0: 177d 8ebd 8572 04bf 2da1 dd3e ec21 873e
000003e0: bac9 bd3e aee5 a9be f729 d23e 2ec1 ba3e
000003f0: b54d 183f dfe0 193f cf62 023e ee0a 163f

weight f4 [2, 32]
-0.24227515 -0.3002819 0.01787954 0.26812783 -0.6444385 -0.39405668 0.103503905 -0.7463361
-0.16040827 -0.620503 -0.7087058 -0.86888874 0.7854332 0.8717174 -0.212204 -0.46206516
0.28998426 -0.05909546 0.023575831 0.13336408 0.064979635 -0.040165227 -0.36291334 -0.032962866
0.862272 -0.59942824 -0.22473207 -0.554261 -0.4793731 0.0998447 -0.17795952 0.7069051
-0.5685386 1.2896801 -0.09820569 0.28777093 0.30324578 -0.49625358 -0.57917696 -0.75923204
0.13584308 -0.6761536 -0.59940636 0.545965 0.59222126 0.5158538 1.7595026 -0.5461798
0.0006794616 -0.64336103 0.048703082 -0.13527936 -0.47430396 0.91936696 -0.56866384 0.018172408
0.53304464 -0.58058566 -0.50412637 -0.58474946 -0.2889492 0.13944952 -0.30166453 0.0053072344
00000000: fa16 78be 8dbe 99be 1d78 923c 0d48 893e
00000010: ecf9 24bf ccc1 c9be dbf9 d33d e20f 3fbf
00000020: 1142 24be 49d9 1ebf be6d 35bf 7e6f 5ebf
00000030: 2612 493f df28 5f3f 014c 59be ce93 ecbe
00000040: d178 943e 150e 72bd 1a22 c13c 9890 083e
00000050: 0b14 853d 4b84 24bd c7cf b9be 1204 07bd
00000060: dcbd 5c3f 2174 19bf 2a20 66be 0de4 0dbf
00000070: 6470 f5be 617b cc3d 053b 36be bcf7 343f
00000080: bf8b 11bf 3d14 a53f 1120 c9bd b656 933e
00000090: 0843 9b3e f314 febe f144 14bf 085d 42bf
000000a0: 731a 0b3e 6718 2dbf b272 19bf 5dc4 0b3f
000000b0: d09b 173f ff0e 043f 6237 e13f 70d2 0bbf
000000c0: e51d 323a 4fb3 24bf e27c 473d ac86 0abe
000000d0: f8d7 f2be a25b 6b3f f493 11bf 4dde 943c
000000e0: 9d75 083f 43a1 14bf 6d0e 01bf 24b2 15bf
000000f0: 26f1 93be dbcb 0e3e c673 9abe 4fe8 ad3b

bias f4 [2]
1.1780045 -1.4364765
00000000: dac8 963f 76de b7bf
