data/test1/model_action.pt (torch, 28037 bytes, 11 tensors)

weight f4 [32, 2]
-0.7581424 -0.8730729 -0.91905296 -0.37587896 -0.90671176 -0.83362114 0.28330222 0.41912994
0.006869631 0.44307378 -0.24588118 -0.3916095 -1.567778 -0.50805396 -0.39967927 -0.40274253
-0.29767543 -0.5144564 0.008115734 -0.008433011 -1.7312622 -0.5692248 -1.3226061 -0.7533588
-0.97878486 -0.34473637 -1.3777119 -0.56154686 -0.8440573 -0.043492027 -0.9057956 -0.83389926
-0.5441062 -0.56907064 0.8135219 -0.18018915 -0.51361394 0.24280347 -0.7006153 -0.8021339
-0.72518903 -0.59729 -0.17806983 -0.32675126 -0.28694916 -0.63989484 -0.72023255 -1.2708693
-0.16503277 -0.341741 -1.0525911 -0.8490221 0.26994807 0.13260056 0.36214256 0.25357887
-0.2122243 -0.6844528 -0.15406169 0.1158886 0.1443125 -0.63070875 -0.9202404 -0.12486012
00000000: 9f15 42bf b581 5fbf 0e47 6bbf 3573 c0be
00000010: 431e 68bf 3268 55bf fd0c 913e 3398 d63e
00000020: a41a e13b 91da e23e 47c8 7bbe 0a81 c8be
00000030: f3ac c8bf d30f 02bf c3a2 ccbe 4534 cebe
00000040: ea68 98be 6ab3 03bf dbf7 043c 9d2a 0abc
00000050: 009a ddbf b7b8 11bf 284b a9bf 1fdc 40bf
00000060: a591 7abf 4981 b0be dd58 b0bf 89c1 0fbf
00000070: 2414 58bf b224 32bd 38e2 67bf 6c7a 55bf
00000080: 8b4a 0bbf 9dae 11bf f942 503f 8183 38be
00000090: 347c 03bf 79a1 783e 865b 33bf a658 4dbf
000000a0: fda5 39bf ffe7 18bf f057 36be f14b a7be
000000b0: 00eb 92be 26d0 23bf 2961 38bf d8ab a2bf
000000c0: 5afe 28be adf8 aebe 4ebb 86bf 8359 59bf
000000d0: a236 8a3e 71c8 073e c06a b93e 17d5 813e
000000e0: 5451 59be 4c38 2fbf 59c2 1dbe 0157 ed3d
000000f0: a8c6 133e 2176 21bf e094 6bbf aab6 ffbd

bias f4 [32]
0.58490044 0.13714863 0.11806979 0.5052534 -0.6173679 0.57505596 0.69408566 -0.26044226
0.08671366 -0.4520801 0.66996014 -0.015385788 0.83268607 0.3375501 -0.09026674 -0.2321227
0.052815493 0.5348399 0.1259256 0.68650705 0.34805325 0.5511848 -0.16412419 -0.09541288
0.56416243 0.057420406 -0.032677844 -0.6700623 0.40568066 -0.6420226 -0.4880627 0.8548766
00000000: 09bc 153f b170 0c3e 93ce f13d 4958 013f
00000010: d30b 1ebf de36 133f 99af 313f b058 85be
00000020: ee96 b13d 0b77 e7be 8282 2b3f ac14 7cbc
00000030: ea2a 553f 5ed3 ac3e c5dd b8bd 93b1 6dbe
00000040: 0f55 583d 45eb 083f a4f2 003e edbe 2f3f
00000050: 0934 b23e 721a 0d3f 2c10 28be d467 c3bd
00000060: f36c 103f a931 6b3d 34d9 05bd 3489 2bbf
00000070: 60b5 cf3e 985b 24bf 5be3 f9be 31d9 5a3f

weight f4 [32, 2]
0.04785764 0.030327393 -0.47327736 0.5439958 -0.8122948 -0.5417464 0.27687576 0.47303957
0.4860472 0.2561097 -0.08756909 -0.38398907 -0.1342068 -0.78153205 -0.57672864 1.0302534
0.4019888 0.19076335 -0.27328372 0.43092692 -0.64590716 -0.6567668 -0.44012895 -0.093667276
-0.515574 0.3160299 -0.48831967 -0.78109986 -0.03429916 0.08912966 -0.34470975 -0.1550708
-0.5575471 0.51709247 0.5417493 0.010714618 0.6342024 -0.58850485 -0.07112871 -0.17451194
0.008453165 0.62396455 0.24335104 -0.45427018 0.75167835 -0.24065441 -0.546444 -0.8179735
-0.13912384 0.7153152 -0.6275804 -0.84359777 0.7442254 0.028147222 -0.027112838 -0.23189898
-0.41885993 -0.2372653 0.45288286 -0.20296216 -0.12789002 -0.3294465 -0.75323176 -0.9739446
00000000: 5f06 443d 2771 f83c 6951 f2be 4f43 0b3f
00000010: 8df2 4fbf e4af 0abf a9c2 8d3e 3e32 f23e
00000020: 2edb f83e d020 833e 6c57 b3bd 379a c4be
00000030: 826d 09be 7c12 48bf 7da4 13bf 58df 833f
00000040: 7ad1 cd3e 7857 433e d8eb 8bbe 74a2 dc3e
00000050: 2c5a 25bf de21 28bf 9558 e1be a1d4 bfbd
00000060: a8fc 03bf acce a13e 0905 fabe 29f6 47bf
00000070: 477d 0cbd 9c89 b63d cc7d b0be e1ca 1ebe
00000080: 68bb 0ebf 2c60 043f 15b0 0a3f 5d8c 2f3c
00000090: 175b 223f 41a8 16bf eeab 91bd 42b3 32be
000000a0: 257f 0a3c 24bc 1f3f 0431 793e 1a96 e8be
000000b0: fe6d 403f 1c6e 76be c1e3 0bbf b666 51bf
000000c0: 7b76 0ebe e61e 373f 1ca9 20bf 06f6 57bf
000000d0: 8e85 3e3f 0195 e63c be1b debc ed76 6dbe
000000e0: cf74 d6be adf5 72be 43e0 e73e 50d5 4fbe
000000f0: 9af5 02be 36ad a8be ccd3 40bf 6f54 79bf

weight f4 [32, 32]
0.44048187 0.42092565 0.6134552 0.5355585 0.13919292 0.7211834 0.69093806 0.67497754
0.5989748 -0.038237654 0.5768207 0.42946643 0.5044661 0.4375243 0.50025874 0.60584044
0.5277467 0.7933287 0.5267318 0.606834 0.55617464 0.5117233 0.6798315 0.44938612
0.5057297 0.71006805 0.2994311 0.16974585 0.40416333 0.0003008845 0.18970773 0.18086013
-0.0737493 0.046574518 -0.07754353 -0.17645016 0.034892157 0.035017088 0.010196771 0.02259444
-0.14983067 0.04436128 -0.07591462 -0.066369355 0.010366661 -0.041015517 -0.10518102 -0.11351772
-0.050452396 -0.15006143 0.11883981 -0.05171857 -0.010308525 0.17285983 0.117285036 0.09008389
0.06150374 -0.16542956 -0.16982776 0.035674244 -0.051296595 0.0488988 -0.1382761 -0.09003178
0.35424352 0.41617715 0.538971 0.35369474 -0.18072729 0.57162195 0.64048225 0.51045686
0.49897617 -0.0398315 0.60644215 0.6555201 0.5528782 0.3710162 0.39816514 0.69156915
0.36411425 0.41768864 0.6550802 0.40536952 0.5686963 0.3785249 0.48565957 0.41903493
0.67100906 0.33606744 0.29610956 0.13033624 0.66823614 0.023091732 0.24088722 0.24604549
0.27403498 0.34124556 0.12860681 0.30728957 -0.17021981 0.272144 0.28764832 0.34814084
0.31093016 0.09680033 0.30401084 0.45710883 0.35135773 0.36439207 0.458987 0.3885085
0.4529681 0.28289846 0.1744641 0.38909665 0.46281013 0.11241001 0.48100665 0.14743866
0.36497027 0.26745284 0.20596339 0.05098127 0.4431138 0.108736366 0.3445019 0.026148012
0.28264067 0.5778993 0.11207267 0.34267706 -0.11353303 0.16703363 0.07942285 0.32893875
0.445487 -0.13059863 0.31189898 0.101401605 0.42015535 0.33430573 0.38781568 0.15331933
0.5798884 0.19787763 0.1228809 0.32194552 0.31603956 0.10667082 0.120866194 0.23407017
0.54684806 0.24182558 0.5389797 -0.11727691 0.08976597 0.13417141 -0.04323303 -0.09215523
0.30240682 0.4667885 0.47532052 0.6033869 -0.11036616 0.1924556 0.27174333 0.3595391
0.33606625 0.04765588 0.20569292 0.4657858 0.31140634 0.31237534 0.28368208 0.22701944
0.16770378 0.5352159 0.28035793 0.3942254 0.34643015 0.41070908 0.46067393 0.22738063
0.5846339 0.23014413 0.29418164 0.07725589 0.45725483 0.065505154 0.07685783 0.120593205
0.26841423 0.38768494 0.16584593 0.38944983 0.038007163 0.042838916 0.020777771 0.3726088
0.2549344 0.007878795 0.034199495 0.3780256 0.24803282 0.26107392 0.28855065 0.3578654
0.46495828 0.14656612 0.4295534 0.19160478 0.19705583 0.15384334 0.063135184 0.14246067
0.5930902 0.04196607 0.5616777 0.0218409 0.1222636 0.010850592 -0.060750198 0.05090992
-0.0954273 0.04619464 -0.12836525 0.093975596 0.1254392 -0.17523684 0.15894626 0.07182271
-0.0778593 -0.008750192 -0.17553282 0.064149395 0.13823205 -0.16841379 -0.06744613 0.020318285
0.051157154 0.13726032 0.12724213 -0.122517034 0.09380107 -0.11705627 0.106019035 -0.16898654
-0.052647308 -0.10804679 0.016616525 -0.05073802 0.07186544 -0.14618438 -0.0397162 -0.08339533
00000000: d786 e13e 9183 d73e 660b 1d3f 5d1a 093f
00000010: 9788 0e3e 7a9f 383f 51e1 303f 54cb 2c3f
00000020: 6a56 193f 169f 1cbd 85aa 133f 06e3 db3e
00000030: b124 013f 2f03 e03e f510 003f 5c18 1b3f
00000040: 681a 073f 9717 4b3f e5d7 063f 7959 1b3f
00000050: 7661 0e3f 4c00 033f 7009 2e3f f015 e63e
00000060: 8077 013f 05c7 353f 084f 993e dbd1 2d3e
00000070: 7fee ce3e 09c0 9d39 be42 423e 6633 393e
00000080: df09 97bd ecc4 3e3d 24cf 9ebd 5aaf 34be
00000090: 14eb 0e3d 146e 0f3d 5b10 273c fa17 b93c
000000a0: 366d 19be 2cb4 353d 2079 9bbd a8ec 87bd
000000b0: edd8 293c e3ff 27bd 2669 d7bd fa7b e8bd
000000c0: 2ca7 4ebd b4a9 19be 4962 f33d dad6 53bd
000000d0: 16e5 28bc 2b02 313e 2333 f03d e77d b83d
000000e0: 58eb 7b3d 5e66 29be 54e7 2dbe 281f 123d
000000f0: 611c 52bd 1c4a 483d 4098 0dbe 9562 b8bd
00000100: 685f b53e 2c15 d53e 01fa 093f 7a17 b53e
00000110: 9310 39be d155 123f a5f6 233f 4dad 023f
00000120: ce79 ff3e 5b26 23bd cb3f 1b3f 2ad0 273f
00000130: 6d89 0d3f d6f5 bd3e 4ddc cb3e ad0a 313f
00000140: 2f6d ba3e 49db d53e 56b3 273f 988c cf3e
00000150: 1596 113f 04ce c13e 5fa8 f83e bf8b d63e
00000160: 40c7 2b3f 0811 ac3e ac9b 973e dd76 053e
00000170: 8611 2b3f df2a bd3c 24ab 763e 59f3 7b3e
00000180: 504e 8c3e bdb7 ae3e 81b1 033e 0f55 9d3e
00000190: 1a4e 2ebe 7556 8b3e a446 933e 843f b23e
000001a0: 3d32 9f3e 403f c63d 4fa7 9b3e 2b0a ea3e
000001b0: 29e5 b33e 9991 ba3e 5800 eb3e 96ea c63e
000001c0: 6feb e73e 11d8 903e b8a6 323e ad37 c73e
000001d0: 73f5 ec3e 3837 e63d 8146 f63e 29fa 163e
000001e0: 62dd ba3e 94ef 883e 11e8 523e bcd1 503d
000001f0: d0df e23e 2cb1 de3d 8e62 b03e 5b34 d63c
00000200: 47b6 903e 35f1 133f 5b86 e53d 5e73 af3e
00000210: 0184 e8bd dd0a 2b3e 72a8 a23d a96a a83e
00000220: df16 e43e a6bb 05be 39b1 9f3e a5ab cf3d
00000230: 9a1e d73e 1f2a ab3e c78f c63e beff 1c3e
00000240: 9173 143f 6fa0 4a3e fba8 fb3d 0bd6 a43e
00000250: f0cf a13e 3b76 da3d b288 f73d 17b0 6f3e
00000260: 3cfe 0b3f 20a1 773e 93fa 093f e02e f0bd
00000270: 39d7 b73d 3b64 093e 1e15 31bd e2bb bcbd
00000280: 11d5 9a3e e7fe ee3e 365d f33e 9077 1a3f
00000290: a707 e2bd 1513 453e f121 8b3e 8215 b83e
000002a0: e010 ac3e d032 433d 2aa1 523e 7a7b ee3e
000002b0: a770 9f3e a9ef 9f3e c73e 913e c977 683e
000002c0: 8aba 2b3e e903 093f 138b 8f3e e9d7 c93e
000002d0: 4b5f b13e 7648 d23e 74dd eb3e 78d6 683e
000002e0: 91aa 153f e7aa 6b3e fa9e 963e 5638 9e3d
000002f0: 4e1d ea3e 9127 863d a367 9d3d 92f9 f63d
00000300: 976d 893e a47e c63e 84d3 293e f865 c73e
00000310: 66ad 1b3d dc77 2f3d 2536 aa3c 95c6 be3e
00000320: c386 823e 1016 013c c514 0c3d 928c c13e
00000330: 51fc 7d3e 7bab 853e e9bc 933e 223a b73e
00000340: 030f ee3e 6e15 163e 6cee db3e 0b34 443e
00000350: 01c9 493e 1c89 1d3e 054d 813d 36e1 113e
00000360: c2d4 173f 9de4 2b3d 1cca 0f3f b0eb b23c
00000370: 5765 fa3d aec6 313c 33d5 78bd ec86 503d
00000380: 636f c3bd 9736 3d3d 2e72 03be 4776 c03d
00000390: 2273 003e 4971 33be cfc2 223e c917 933d
000003a0: b274 9fbd f75c 0fbc e0be 33be c260 833d
000003b0: b48c 0d3e aa74 2cbe 3221 8abd 8872 a63c
000003c0: 2a8a 513d f88d 0c3e c34b 023e 36ea fabd
000003d0: c61a c03d 33bb efbd 8220 d93d cf0a 2dbe
000003e0: b4a4 57bd a347 ddbd 611f 883c acd2 4fbd
000003f0: 302e 933d 5cb1 15be 74ad 22bd 2ccb aabd

bias f4 [32]
-0.41701785 -0.13318847 -0.4994974 -0.4049131 -0.257808 -0.8760716 -0.37849483 0.16188478
-0.41938144 -0.20831619 -0.38669002 0.07196183 -0.39419115 -0.5252548 -0.4039972 -0.249998
-0.3551772 -0.3566906 -0.54041004 -0.10447849 -0.13457485 -0.16363499 -0.09111207 -0.31022286
0.06599495 0.22429271 -0.39513338 -0.5220738 -0.30625194 -0.43257204 -0.4454243 -0.36439326
00000000: 5d83 d5be 8f62 08be 20be ffbe c550 cfbe
00000010: 69ff 83be 3a46 60bf 13ca c1be 20c5 253e
00000020: 2ab9 d6be d750 55be 3cfc c5be b960 933d
00000030: 6cd3 c9be 1977 06bf b9d8 cebe 7aff 7fbe
00000040: c9d9 b5be 26a0 b6be 5058 0abf d2f8 d5bd
00000050: fdcd 09be ee8f 27be f798 babd 88d5 9ebe
00000060: 5c28 873d fdac 653e ec4e cabe a1a6 05bf
00000070: 0ecd 9cbe 157a ddbe a70e e4be c191 babe

weight f4 [32, 32]
-0.42626455 0.34144196 -0.17500278 0.22979046 -0.11358725 -0.3457694 -0.19510661 -0.06280397
0.1804406 -0.08634897 -0.052659906 -0.26000842 0.08064594 0.14778823 0.42559236 0.00018572633
0.3231604 0.39056966 0.3738104 -0.41140077 -0.362733 0.12159421 -0.09323486 -0.059048377
0.34939504 0.47536567 0.39648896 -0.1076872 0.2918854 0.3088052 0.57629085 0.18857145
0.11366074 -0.13923326 0.11562042 0.13459268 -0.009471118 -0.13337953 -0.12893479 -0.1629254
-0.092093445 0.17450197 -0.026564911 0.12340145 0.0045839474 -0.17529671 -0.1381191 -0.04608707
-0.07801521 -0.06960944 -0.008097347 0.017106935 0.13225581 0.030808857 0.06869082 -0.11766907
-0.015814854 0.08938503 0.11959435 0.16426627 0.123154595 0.07000175 -0.090254046 0.041455537
-0.3035578 0.31714284 -0.22026531 0.23823076 0.11231275 -0.43153247 -0.22770415 -0.17962521
0.41780087 -0.13028868 -0.13153887 -0.2153019 -0.10486368 0.050251193 0.33874542 -0.14087553
0.3859193 0.3174227 0.086056225 -0.52520055 -0.4170891 0.16761719 -0.007924183 -0.3598505
0.24722898 0.1738618 0.40131575 0.1281051 0.21737042 0.49894175 0.45124915 0.23601268
-0.57905596 0.11821825 -0.51540834 0.32805684 -0.16437581 -0.5104891 -0.22279303 0.029462472
0.31155968 0.031467207 -0.11589984 -0.47346687 -0.09361366 -0.18568666 0.16962145 -0.108932555
0.33021504 0.19482547 0.227195 -0.56161594 -0.553569 -0.12382284 0.05662118 -0.3230738
0.3620291 0.1887566 0.3469127 -0.012508569 0.0376891 0.3003599 0.4210268 -0.6195015
-0.1899092 0.06054543 -0.6833068 0.5589282 0.03256804 -0.6033089 -0.11975535 -0.14114338
0.4897966 -0.17166848 -0.5087959 -0.41881764 -0.159816 -0.43095067 0.19730313 -0.26264343
0.19800779 0.5176877 0.14287658 -0.62144864 -0.46081132 -0.19982992 0.09743157 -0.65751475
0.2730192 -0.042386852 0.6989681 0.20363481 -0.12817422 0.56765777 0.4399202 -1.8973072
-0.9947066 0.24272025 -0.87674195 0.19900171 0.14141266 -0.95676386 -0.7187847 -0.48850533
0.15298451 -0.25039032 -0.869021 -0.8129268 -0.5711124 -0.4779829 0.2753234 -0.8894756
0.33581573 0.40524465 -0.03267775 -0.9641336 -1.0092603 -0.35915032 -0.56268644 -0.6149859
0.17827539 -0.45327467 0.17495818 -0.19062947 -0.36743513 0.42687935 0.21769027 -0.9930937
-0.455732 0.22689584 -0.7013045 0.26366115 0.04138231 -0.63824725 -0.3404334 0.09854949
0.44817334 -0.02575183 -0.36193866 -0.46942836 -0.051832717 -0.16336598 0.40662262 -0.11999247
0.28871247 0.3500664 0.22686195 -0.45126978 -0.42486462 0.090831004 -0.01857657 -0.4542068
0.19076689 -0.05239028 0.3849694 0.20571597 -0.1700793 0.608793 0.44572648 -1.4634451
-0.078312196 -0.13582554 0.068850525 0.3225164 0.18101119 0.14323533 0.14974622 0.025220385
-0.11210693 0.11322246 -0.16712168 -0.05836255 0.09579465 -0.06491274 -0.02983631 -0.16254383
-0.033577923 0.083847925 0.023291154 -0.10867459 -0.14435573 -0.15053827 -0.009945217 0.008392173
-0.050890863 0.12794784 -0.045245457 -0.07195284 -0.034680434 -0.06451445 0.16266905 -0.113345645
00000000: 593f dabe 7bd1 ae3e ee33 33be 314e 6b3e
00000010: 6fa0 e8bd b008 b1be 07ca 47be 5e9f 80bd
00000020: 6cc5 383e bbd7 b0bd eab1 57bd d31f 85be
00000030: b329 a53d cc55 173e 3ee7 d93e 88bf 4239
00000040: 4875 a53e bff8 c73e 1464 bf3e 1fa3 d2be
00000050: 24b8 b9be 6306 f93d ebf1 bebd b6dc 71bd
00000060: e8e3 b23e 2163 f33e 9a00 cb3e 1b8b dcbd
00000070: 0172 953e b71b 9e3e cc87 133f e018 413e
00000080: f6c6 e83d 2a93 0ebe 66ca ec3d aad2 093e
00000090: c02c 1bbc a594 08be 7b07 04be ebd5 26be
000000a0: 7d9b bcbd a5b0 323e a89e d9bc e6b9 fc3d
000000b0: f034 963b fb80 33be 186f 0dbe ccc5 3cbd
000000c0: 70c6 9fbd 658f 8ebd bcaa 04bc d823 8c3c
000000d0: 116e 073e db62 fc3c c6ad 8c3d 7bfc f0bd
000000e0: 278e 81bc 800f b73d e2ed f43d 6b35 283e
000000f0: 7a38 fc3d 145d 8f3d 1dd7 b8bd 48cd 293d
00000100: ee6b 9bbe 8c60 a23e 3b8d 61be c4f2 733e
00000110: 3a04 e63d d3f1 dcbe 472b 69be acef 37be
00000120: ffe9 d53e 656a 05be 20b2 06be 1a78 5cbe
00000130: c5c2 d6bd 32d4 4d3d 0a70 ad3e ad41 10be
00000140: 3797 c53e 3a85 a23e 3f3e b03d 8b73 06bf
00000150: b48c d5be d7a3 2b3e 6fd4 01bc 533e b8be
00000160: 9829 7d3e d408 323e 4279 cd3e fc2d 033e
00000170: 5a96 5e3e 4b75 ff3e 210a e73e 4fad 713e
00000180: 033d 14bf 691c f23d cdf1 03bf 11f7 a73e
00000190: 2252 28be 6aaf 02bf db23 64be 485b f13c
000001a0: c084 9f3e c2e3 003d e55c edbd 406a f2be
000001b0: 85b8 bfbd a524 3ebe 3fb1 2d3e 0818 dfbd
000001c0: f211 a93e 5480 473e cea5 683e 10c6 0fbf
000001d0: b3b6 0dbf d496 fdbd 9ceb 673d ee69 a5be
000001e0: e15b b93e 6949 413e 8b9e b13e bef0 4cbc
000001f0: e35f 1a3d c6c8 993e d390 d73e a697 1ebf
00000200: 8f77 42be 7cfe 773d 32ed 2ebf eb15 0f3f
00000210: 1166 053d 7472 1abf 4b42 f5bd e487 10be
00000220: 9fc6 fa3e ddc9 2fbe 7340 02bf 446f d6be
00000230: cea6 23be 91a5 dcbe d509 4a3e 3379 86be
00000240: 8ec2 4a3e 2e87 043f 3d4e 123e 4217 1fbf
00000250: 76ef ebbe 37a0 4cbe 348a c73d e352 28bf
00000260: 2cc9 8b3e d69d 2dbd 93ef 323f a585 503e
00000270: 1a40 03be 0552 113f 383d e13e f6da f2bf
00000280: 17a5 7ebf a88b 783e 2972 60bf 1bc7 4b3e
00000290: 7bce 103e 7aee 74bf 4602 38bf 5f1d fabe
000002a0: f9a7 1c3e 2933 80be 2978 5ebf f91b 50bf
000002b0: 6c34 12bf 2dba f4be 30f7 8c3e acb4 63bf
000002c0: 0af0 ab3e 3a7c cf3e 1bd9 05bd 76d1 76bf
000002d0: 712f 81bf 8de2 b7be 380c 10bf b76f 1dbf
000002e0: d38d 363e 9e13 e8be 3d28 333e 5f34 43be
000002f0: 7520 bcbe ee8f da3e 33ea 5e3e 643b 7ebf
00000300: b455 e9be 6257 683e b188 33bf 98fe 863e
00000310: 7f80 293d 2c64 23bf 494d aebe 51d4 c93d
00000320: fa76 e53e 80f5 d2bc 0650 b9be ea58 f0be
00000330: 8b4e 54bd 6949 27be d730 d03e 9dbe f5bd
00000340: 1fd2 933e e73b b33e 804e 683e d50c e7be
00000350: db87 d9be 9b05 ba3d e42d 98bc cb8d e8be
00000360: 6558 433e 3197 56bd b61a c53e 35a7 523e
00000370: 4529 2ebe dcd9 1b3f 4336 e43e 2b52 bbbf
00000380: 2562 a0bd da15 0bbe 8101 8d3d df20 a53e
00000390: ff5a 393e 48ac 123e 1357 193e fb9a ce3c
000003a0: 5198 e5bd 2de1 e73d f221 2bbe 920d 6fbd
000003b0: fc2f c43d f8f0 84bd 476b f4bc e471 26be
000003c0: 0189 09bd 76b8 ab3d 17cd be3c c990 debd
000003d0: fdd1 13be b426 1abe 43f1 22bc 537f 093c
000003e0: f072 50bd c204 033e 4d53 39bd 035c 93bd
000003f0: 120d 0ebd 2720 84bd b792 263e c321 e8bd

weight f4 [32, 32]
0.5713343 0.007038459 0.60351855 0.7469714 0.5964877 0.6417606 0.5987869 -0.08594356
0.7554089 0.75181895 0.45552674 0.14550345 0.7015182 0.77647597 0.6647549 0.5745681
0.62723565 0.45678848 0.65040535 0.11319719 -0.037957013 -0.09594189 0.01924718 0.7152286
0.15262872 -0.5529286 0.8189603 0.60065484 0.70839787 0.7810258 0.74022233 0.6481121
0.051192112 0.09912817 0.08766611 -0.030508095 0.2384455 0.011369109 0.31281045 0.043633893
0.105943136 0.047052894 0.39172864 -0.02139722 0.08472328 0.10894998 -0.17823605 0.053674933
0.30063006 0.30203956 -0.053764578 -0.086427696 0.17570351 0.13128649 -0.11453231 0.14470759
-0.05676852 0.3677822 -0.06572608 0.11097577 0.19462365 -0.09390155 0.15962647 -0.07645986
0.7421275 0.03543818 0.5367072 0.6535702 0.53729206 0.46826535 0.58628947 -0.0019278917
0.7706156 0.7355036 0.6501822 -0.09041428 0.7804927 0.66405207 0.62313443 0.5609781
0.6989849 0.43172476 0.64250314 -0.008708358 0.10731529 0.07715267 0.097820915 0.6796789
0.08838346 -0.50059134 0.7463484 0.8315208 0.8340109 0.57975113 0.81314707 0.8128965
-0.032996006 0.04903318 -0.08208309 0.008062448 0.13616264 -0.10609731 -0.18972103 -0.02301147
0.12885828 0.06079932 -0.1193212 0.071358815 0.11761381 -0.012340779 -0.12414592 -0.11417105
0.076212406 0.023505751 0.012883552 0.081722185 0.117942736 -0.14762071 -0.05465367 0.08885034
0.065119706 0.0292411 -0.11199469 -0.1185229 -0.16336772 -0.13549203 0.13638683 0.030612525
-0.04778471 -0.10133622 -0.07717355 0.02965324 0.34250233 -0.15191953 0.14388192 0.07532187
-0.08808372 0.07402156 0.24881731 -0.016593022 0.088754304 0.2002195 0.14967763 -0.13084412
0.17926879 0.10258891 -0.13615142 -0.021934986 0.024705887 -0.085279234 0.068948254 -0.015696358
-0.07531203 0.2686906 -0.06915124 0.10165291 0.19312893 0.16208999 0.05542683 -0.0044200355
0.6772967 -0.022916019 0.7529807 0.8706649 0.39687678 0.5388705 0.48758286 -0.08935311
0.9054992 0.796939 0.42180577 -0.0025286674 0.6033601 0.59118164 0.90584105 0.8736332
0.59561986 0.64765865 0.54437613 -0.0822651 -0.0992914 0.022336816 0.036339473 0.6264354
0.03481725 -0.23515029 0.85377455 0.8680213 0.88192636 0.828575 0.5680582 0.6286001
0.18670389 -0.029181108 0.1492534 0.007133839 0.26569125 0.08988325 0.17273574 0.04963834
0.027273526 0.09361553 0.48628882 -0.09028902 0.14399412 -0.020386623 0.12683326 0.09971438
0.25428525 0.42148656 0.034918267 -0.14610288 0.1386963 -0.03387105 -0.019492906 0.053454287
-0.03695187 0.319606 -0.13836236 -0.17096229 -0.015206136 -0.09348337 0.002014965 -0.16324304
0.73442936 -0.025590867 0.56358695 0.7018918 0.68653977 0.6550311 0.5280141 -0.009857864
0.69269377 0.6548241 0.6439555 -0.05554418 0.8092308 0.5991877 0.7979719 0.8412514
0.65699184 0.4533253 0.83373976 -0.062760994 -0.04207909 0.14851786 0.08298211 0.7063103
0.013550215 -0.35060504 0.79519576 0.72136503 0.79163903 0.7306257 0.7318115 0.63917345
00000000: f742 123f e0a2 e63b 3180 1a3f 8539 3f3f
00000010: 6bb3 183f 6c4a 243f 194a 193f 2d03 b0bd
00000020: 7a62 413f 3577 403f cd3a e93e dbfe 143e
00000030: b296 333f 21c7 463f 612d 2a3f e516 133f
00000040: 8492 203f 2ee0 e93e f780 263f eed3 e73d
00000050: d078 1bbd 2e7d c4bd 43ac 9d3c 3919 373f
00000060: b44a 1c3e bb8c 0dbf 62a7 513f 84c4 193f
00000070: 9059 353f 4ff1 473f 367f 3d3f adea 253f
00000080: d2ae 513d b603 cb3d 4a8a b33d 1dec f9bc
00000090: 0f2b 743e 8045 3a3c b128 a03e 74b9 323d
000000a0: b7f8 d83d 89ba 403d a890 c83e 3949 afbc
000000b0: 6683 ad3d 2b21 df3d 8383 36be 3fda 5b3d
000000c0: 2fec 993e eea4 9a3e 3f38 5cbd 0101 b1bd
000000d0: 9feb 333e f76f 063e ea8f eabd 3a2e 143e
000000e0: 1c86 68bd f34d bc3e 659b 86bd 4447 e33d
000000f0: 6c4b 473e 754f c0bd 1f75 233e fd96 9cbd
00000100: 11fc 3d3f a027 113d a565 093f 6050 273f
00000110: f98b 093f 7ac0 ef3e 1117 163f 50b1 fcba
00000120: 1047 453f f749 3c3f 5772 263f 1f2b b9bd
00000130: 5fce 473f 51ff 293f bd85 1f3f 439c 0f3f
00000140: adf0 323f 070b dd3e 167b 243f 80ad 0ebc
00000150: 1ec8 db3d 3802 9e3d 5556 c83d 70ff 2d3f
00000160: 6302 b53d c126 00bf b010 3f3f 8cde 543f
00000170: bd81 553f 926a 143f 682a 503f fc19 503f
00000180: d226 07bd 04d7 483d 2e1b a8bd 5c18 043c
00000190: 386e 0b3e 8c49 d9bd 3b46 42be 8d82 bcbc
000001a0: 6df3 033e b508 793d ac5e f4bd 9224 923d
000001b0: 82df f03d fb30 4abc 3740 febd 83d2 e9bd
000001c0: 4015 9c3d 228f c03c 8915 533c f65d a73d
000001d0: f68b f13d e229 17be 87dc 5fbd 2bf7 b53d
000001e0: 7b5d 853d 088b ef3c 795d e5bd 22bc f2bd
000001f0: de49 27be 6cbe 0abe fda8 0b3e 1ec7 fa3c
00000200: e6b9 43bd 5d89 cfbd 2b0d 9ebd 5aeb f23c
00000210: 775c af3e cb90 1bbe c855 133e 5a42 9a3d
00000220: 3d65 b4bd 9e98 973d f7c9 7e3e 17ee 87bc
00000230: d1c4 b53d 5706 4d3e 1845 193e 00fc 05be
00000240: 3d92 373e 221a d23d 476b 0bbe 00b1 b3bc
00000250: 0064 ca3c e1a6 aebd be34 8d3d a695 80bc
00000260: 323d 9abd d091 893e 2a9f 8dbd 672f d03d
00000270: 97c3 453e ebfa 253e 3e07 633d f2d5 90bb
00000280: 5163 2d3f 60ba bbbc 58c3 403f e5e3 5e3f
00000290: 6f33 cb3e 6bf3 093f 76a4 f93e c3fe b6bd
000002a0: ccce 673f 3204 4c3f edf6 d73e 00b8 25bb
000002b0: cf75 1a3f ae57 173f 33e5 673f 6da6 5f3f
000002c0: 8b7a 183f f5cc 253f 3c5c 0b3f 9b7a a8bd
000002d0: 4a59 cbbd b3fb b63c b3d8 143d 125e 203f
000002e0: 889c 0e3d 3dcb 70be f890 5a3f a536 5e3f
000002f0: edc5 613f 7e1d 543f 436c 113f f0eb 203f
00000300: 4e2f 3f3e 380d efbc e2d5 183e fbc2 e93b
00000310: af08 883e b614 b83d a3e1 303e 9251 4b3d
00000320: bb6c df3c 80b9 bf3d d9fa f83e 73e9 b8bd
00000330: 3273 133e d901 a7bc 94e0 013e 0e37 cc3d
00000340: ad31 823e 16cd d73e 7506 0f3d fe9b 15be
00000350: 6706 0e3e 5fbc 0abd 96af 9fbc e2f2 5a3d
00000360: d85a 17bd 66a3 a33e ddae 0dbe bd10 2fbe
00000370: 2823 79bc 3674 bfbd 810d 043b 2f29 27be
00000380: 9003 3c3f f0a3 d1bc 3c47 103f 2eaf 333f
00000390: 12c1 2f3f 1eb0 273f ef2b 073f e182 21bc
000003a0: 6154 313f 8da2 273f 45da 243f 4b82 63bd
000003b0: c029 4f3f 5d64 193f e347 4c3f 405c 573f
000003c0: 9e30 283f 411a e83e f86f 553f d688 80bd
000003d0: 205b 2cbd 1115 183e 86f2 a93d c0d0 343f
000003e0: b901 5e3c 8182 b3be f391 4b3f 61ab 383f
000003f0: dba8 4a3f 490a 3b3f 0058 3b3f dfa0 233f

bias f4 [32]
-0.5993196 -0.47889596 -0.8618523 -0.0052615437 -0.2312028 -0.888654 0.07656279 -0.72183526
-0.9549288 -0.15733077 -0.69824827 -0.12669638 -0.3795154 -0.035546932 -0.7841664 -0.47936466
-0.51190084 -0.2394211 0.10078666 -0.6665247 -0.23829938 -0.6476545 -0.5898021 -0.7458824
-0.21942525 -0.1375533 1.1710792 -0.5727726 -0.4468915 -0.4523694 -0.25011837 -0.322607
00000000: 026d 19bf da31 f5be 5aa2 5cbf 0769 acbb
00000010: 6dc0 6cbe d47e 63bf f4cc 9c3d 32ca 38bf
00000020: 3776 74bf 511b 21be 66c0 32bf b2bc 01be
00000030: d84f c2be a999 11bd 21bf 48bf 496f f5be
00000040: ef0b 03bf ce2a 75be 3d69 ce3d 5da1 2abf
00000050: c104 74be afcc 25bf 45fd 16bf 26f2 3ebf
00000060: 03b1 60be c6da 0cbe ece5 953f 3aa1 12bf
00000070: f6ce e4be f69c e7be 840f 80be bf2c a5be

weight f4 [32, 32]
0.3758826 0.039958958 0.48967925 0.3601878 0.016369596 0.4649403 0.1444823 -0.17952394
0.37206286 0.32961264 -0.0096646845 -0.03213658 0.22430599 0.15925239 0.35150728 0.26432663
0.29768658 0.1500789 0.48457828 -0.07354071 -0.03764481 -0.15377994 -0.13084881 0.3905682
-0.0853967 -0.2930507 0.44733986 0.40826955 0.3965628 0.29137066 0.4100464 0.3137512
0.1580103 -0.00090727775 0.14319384 0.26904133 0.3373844 0.43878165 0.2023168 0.00408139
0.12011257 0.25578466 0.21825916 0.14209816 0.49964854 0.40507543 0.21989724 0.41836837
0.23764367 0.27166855 0.32902414 0.112896994 -0.1316329 0.024535012 -0.036253706 0.35011673
0.07888672 -0.06950626 0.40171778 0.23255323 0.33305818 0.36341944 0.18369016 0.26624128
0.36421847 -0.051040195 0.21096611 0.119560376 0.09568082 0.43981713 0.08742415 0.12393889
0.37444666 0.21051982 0.061631113 0.09997916 0.37069246 0.26756576 0.2856188 0.35538942
-0.015431707 0.12626502 0.40791082 0.14251094 0.120669775 0.09481665 0.10447128 0.38622162
0.06045856 -0.231991 0.28431392 0.47713563 0.38935125 0.31696633 0.35167247 0.36274585
-0.12408066 -0.047513083 -0.14024703 -0.014907948 -0.06933332 -0.030601824 0.15777881 -0.07845151
0.07419732 0.004994585 -0.03239242 0.11468413 -0.1743961 0.1578799 0.09434343 -0.03970837
-0.17663327 -0.099445485 -0.17697443 -0.04874979 -0.14953226 0.10701759 -0.02118893 -0.063289806
0.0042204037 -0.10524229 -0.12419046 0.03455583 0.1174295 -0.1283931 -0.10497983 0.097240716
0.18341458 -0.051500008 0.14048612 0.32143107 0.20765084 0.38625306 0.32693237 0.0008558704
0.4046625 0.24830927 0.3386406 0.054677255 0.4429331 0.41243595 0.2079084 0.29222947
0.20955086 0.16366509 0.16074353 0.008462101 -0.09710403 -0.10027192 -0.015795767 0.19452566
0.1401617 0.15441187 0.12851502 0.2678205 0.4618177 0.29923934 0.12995851 0.28955892
0.19632682 -0.0765101 0.47611997 0.28069484 -0.08462191 0.34357312 0.07909925 -0.20503515
0.54650986 0.38759482 0.071313165 -0.0077746604 0.4830169 0.10652464 0.3788852 0.2721119
0.0739187 0.16581146 0.35561767 0.059913054 -0.17474717 -0.19363306 -0.10636111 0.062969655
0.15223038 -0.3149793 0.51803464 0.19793478 0.17587268 0.31287575 0.5020779 0.30087063
0.35791686 0.11768268 0.43232238 0.15219486 0.2983939 0.53518474 0.28004503 -0.0633268
0.3739856 0.37277904 0.36286512 0.0996032 0.55632037 0.4507963 0.37080392 0.3072605
0.2889666 0.3118779 0.2426568 -0.15994272 -0.070517756 0.11291383 0.12916788 0.34721103
-0.09304118 0.4446445 0.45099047 0.2976513 0.33177024 0.47285968 0.5165982 0.35282627
0.4905075 0.15420364 0.223723 0.41109216 -0.0028043576 0.21077533 0.08062847 -0.017040739
0.42192468 0.213287 0.13872088 -0.049976133 0.47856078 0.41359207 0.32788977 0.43846065
0.25373903 0.32356688 0.5280795 -0.1690392 0.14280011 -0.007820381 0.19227307 0.35838208
-0.06273433 -0.5158188 0.40206915 0.35707128 0.27583745 0.22903211 0.4703204 0.41383383
00000000: af73 c03e 01ac 233d 3db7 fa3e 896a b83e
00000010: 8819 863c a80c ee3e 2bf3 133e 20d5 37be
00000020: 067f be3e fdc2 a83e a058 1ebc a6a1 03bd
00000030: 78b0 653e 0f13 233e c3f8 b33e d255 873e
00000040: 606a 983e 48ae 193e a51a f83e 839c 96bd
00000050: 7231 1abd 7d78 1dbe 3bfd 05be 8ef8 c73e
00000060: 77e4 aebd be0a 96be bb09 e53e b508 d13e
00000070: 480a cb3e 892e 953e 9af1 d13e ffa3 a03e
00000080: 74cd 213e 61d6 6dba 68a1 123e c9bf 893e
00000090: a6bd ac3e fda7 e03e 232c 4f3e 2ebd 853b
000000a0: 94fd f53d 35f6 823e 547f 5f3e 2e82 113e
000000b0: efd1 ff3e 0c66 cf3e be2c 613e 6134 d63e
000000c0: dd58 733e 2418 8b3e da75 a83e 8a36 e73d
000000d0: c6ca 06be a6fd c83c c47e 14bd 8042 b33e
000000e0: 5c8f a13d 4c59 8ebd f4ad cd3e 6f22 6e3e
000000f0: 9a86 aa3e 1d12 ba3e 4619 3c3e c750 883e
00000100: d87a ba3e 860f 51bd 8007 583e 12dc f43d
00000110: 4ef4 c33d b62f e13e 6f0b b33d acd3 fd3d
00000120: 79b7 bf3e 8292 573e e870 7c3d e0c1 cc3d
00000130: 67cb bd3e 61fe 883e a13c 923e 9af5 b53e
00000140: 45d5 7cbc 9e4b 013e b0d9 d03e 63ee 113e
00000150: b721 f73d 3b2f c23d 0af5 d53d d7be c53e
00000160: 65a3 773d 0c8f 6dbe 9891 913e 1f4b f43e
00000170: 0c59 c73e 6949 a23e 6a0e b43e d3b9 b93e
00000180: 001e febd 149d 42bd eb9c 0fbe 7740 74bc
00000190: a1fe 8dbd adb0 fabc c590 213e 2fab a0bd
000001a0: c4f4 973d 9ea9 a33b eaad 04bd 83df ea3d
000001b0: e494 32be 45ab 213e 2137 c13d 3ea5 22bd
000001c0: 5adf 34be 13aa cbbd c938 35be dcad 47bd
000001d0: fc1e 19be 0a2c db3d 6894 adbc 169e 81bd
000001e0: 504b 8a3b 4589 d7bd 9157 febd 6a8a 0d3d
000001f0: e17e f03d 7b79 03be aaff d6bd 2426 c73d
00000200: 08d1 3b3e acf1 52bd 98db 0f3e 9d92 a43e
00000210: 6ca2 543e f6c2 c53e ae63 a73e 7e5c 603a
00000220: ec2f cf3e c944 7e3e 4d62 ad3e 42f5 5f3d
00000230: 21c8 e23e ce2a d33e f1e5 543e 1a9f 953e
00000240: 8094 563e d297 273e f499 243e a0a4 0a3c
00000250: 7ade c6bd 5d5b cdbd 2066 81bc bc31 473e
00000260: 8c86 0f3e 251e 1e3e 7199 033e c51f 893e
00000270: 5f73 ec3e e635 993e d813 053e 1141 943e
00000280: e609 493e 54b1 9cbd ffc5 f33e 3cb7 8f3e
00000290: 404e adbd d1e8 af3e cafe a13d bcf4 51be
000002a0: 12e8 0b3f d472 c63e a30c 923d 94c2 febb
000002b0: fe4d f73e 9729 da3d 3efd c13e 4052 8b3e
000002c0: b062 973d 7bca 293e 8513 b63e 6467 753d
000002d0: ecf0 32be bf47 46be dbd3 d9bd 3cf6 803d
000002e0: 48e2 1b3e f844 a1be eb9d 043f 6aaf 4a3e
000002f0: f817 343e 4031 a03e 2d88 003f b70b 9a3e
00000300: e140 b73e 9e03 f13d 5c59 dd3e f8d8 1b3e
00000310: 16c7 983e de01 093f 1062 8f3e 7bb1 81bd
00000320: 0a7b bf3e e5dc be3e 75c9 b93e c3fc cb3d
00000330: 036b 0e3f c6ce e63e 03da bd3e 4051 9d3e
00000340: 6ef3 933e 76ae 9f3e 067b 783e 06c8 23be
00000350: 9d6b 90bd 5e3f e73d 9644 043e a5c5 b13e
00000360: 608c bebd 72a8 e33e 39e8 e63e c065 983e
00000370: cadd a93e aa1a f23e c83f 043f a5a5 b43e
00000380: cd23 fb3e 8fe7 1d3e a417 653e ac7a d23e
00000390: 50c9 37bb 7dd5 573e 8a20 a53d 0599 8bbc
000003a0: 8306 d83e e867 5a3e d90c 0e3e c6b3 4cbd
000003b0: eb05 f53e 57c2 d33e 2be1 a73e ea7d e03e
000003c0: 15ea 813e 8faa a53e 3830 073f 9d18 2dbe
000003d0: 313a 123e 0e21 00bc 3be3 443e db7d b73e
000003e0: db7a 80bd b30c 04bf 02dc cd3e 0cd2 b63e
000003f0: 913a 8d3e 6587 6a3e d6cd f03e 07e2 d33e

weight f4 [2, 32]
0.47409612 -0.44136715 0.38057926 -0.11339999 -0.49681243 0.46028793 -0.25267264 0.39380953
0.4716198 0.00054660544 0.4638445 -0.66829604 -0.33791986 0.1373893 0.44674242 0.19739865
0.2816421 -0.66504675 -0.14990772 0.35116905 -0.41793522 0.42834362 0.28416044 0.48903847
-0.48168698 0.08220357 0.858312 0.30881488 0.37323645 0.24772787 -0.5072348 -0.5986385
-0.47614276 0.5006554 -0.35021517 -0.041506678 0.5078284 -0.4014324 0.59866935 -0.4451973
-0.3451288 0.09062579 -0.5250575 0.7726863 0.50094 0.096134126 -0.36681512 -0.57119524
-0.62159026 0.7090298 0.0103735 -0.48475307 0.6353282 -0.62259716 -0.39661196 -0.41847673
0.5322801 0.10385783 0.71838415 -0.5675945 -0.38140857 -0.5837566 0.584939 0.5740637
00000000: babc f23e e0fa e1be 49db c23e 413e e8bd
00000010: 335e febe dcaa eb3e 4f5e 81be 67a1 c93e
00000020: 2778 f13e 124a 0f3a 077d ed3e 7315 2bbf
00000030: d503 adbe c8af 0c3e 6cbb e43e df22 4a3e
00000040: 6533 903e 8140 2abf 6981 19be 6ecc b33e
00000050: 9bfb d5be db4f db3e 7a7d 913e 4063 fa3e
00000060: ad9f f6be 585a a83d 56ba 5b3f fc1c 9e3e
00000070: d918 bf3e 60ac 7d3e 24da 01bf 5f40 19bf
00000080: fcc8 f3be f42a 003f 674f b3be e802 2abd
00000090: 0b01 023f 8c88 cdbe 6542 193f e7f0 e3be
000000a0: b9b4 b0be 049a b93d 2b6a 06bf c5ce 453f
000000b0: 9b3d 003f f8e1 c43d 31cf bbbe da39 12bf
000000c0: 8a20 1fbf fa82 353f 9df5 293c 8e31 f8be
000000d0: dea4 223f 8762 1fbf b910 cbbe 9542 d6be
000000e0: 8243 083f 6ab3 d43d 06e8 373f e04d 11bf
000000f0: fc47 c3be 1371 15bf 90be 153f d7f5 123f

bias f4 [2]
-0.4632353 0.34405887
00000000: 2d2d edbe 7c28 b03e
