data/test1/model_value2_delay.pt (torch, 18692 bytes, 8 tensors)

weight f4 [32, 2]
000000 7c d7 8d c1 69 23 8c 41 97 1f 8d c1 5f fd 8d 41
       -17.730217 17.51729 -17.640425 17.748716
000010 d3 96 8f c1 c8 06 87 41 7e be 8e c1 e1 c3 90 41
       -17.948645 16.878311 -17.843014 18.095644
000020 1f 7b 8f c1 1f ce 89 41 38 60 29 c1 7e e4 06 41
       -17.935118 17.225645 -10.585991 8.430784
000030 de 4d 11 bf 31 d3 8b 40 0c 27 84 c1 ca 89 86 41
       -0.5675944 4.36953 -16.519066 16.81728
000040 37 e6 21 bf 2d de a2 40 d7 c1 8e c1 16 9b 8b 41
       -0.63241905 5.089621 -17.844648 17.450726
000050 e4 38 dd c0 6f d6 b3 40 3d bc 8e c1 25 0e 88 41
       -6.9131947 5.619926 -17.841913 17.006907
000060 f4 9e 84 be b0 2c 80 40 7e 0a 41 c1 be 27 3c 41
       -0.25902522 4.005455 -12.065062 11.759703
000070 9d c3 08 c1 dc 06 da 40 08 a5 8e c1 19 42 88 41
       -8.547757 6.8133373 -17.830582 17.032274
000080 c6 e1 0a c1 06 79 d3 40 d2 0a e9 c0 5b 1f 91 40
       -8.68012 6.6085234 -7.282571 4.5350776
000090 16 5d 84 c1 2f 32 87 41 f9 a5 88 c1 35 9c 8c 41
       -16.545452 16.899504 -17.081041 17.576273
0000a0 0c 73 89 c1 a6 4c 85 41 a6 78 86 bf f3 fe b0 bf
       -17.181175 16.662426 -1.0505569 -1.3827804
0000b0 10 0a ec c0 6a bf a8 40 a0 77 4b c0 21 85 55 c0
       -7.3762283 5.273366 -3.1791763 -3.3362505
0000c0 78 9d 8d c1 01 be 8d 41 76 8a 88 c1 d1 f8 85 41
       -17.701889 17.717775 -17.067608 16.746492
0000d0 95 35 8a c1 b6 93 8c 41 3a e6 8a c1 84 82 89 41
       -17.276163 17.572124 -17.362415 17.188728
0000e0 98 2e 84 c1 1e 70 8a 41 bd b2 1f c1 20 a3 eb 40
       -16.52275 17.304745 -9.981137 7.3636627
0000f0 2b c2 85 c0 bc 0e 94 c0 68 7b 84 c1 13 bc 8a 41
       -4.179952 -4.6267986 -16.560257 17.341833

bias f4 [32]
000000 56 b9 85 41 08 36 92 41 1c a6 8e 41 da 72 92 41
       16.715496 18.276382 17.831108 18.30608
000010 08 7b 91 41 4e 32 48 41 5d 3a 2c 41 54 85 88 41
       18.185074 12.512281 10.764249 17.065102
000020 73 eb 7c 41 79 72 94 41 10 1d 10 41 a4 e2 89 41
       15.807483 18.555895 9.007095 17.235664
000030 09 e0 0b 41 6a 10 46 41 31 f1 05 41 d1 9c 8b 41
       8.742196 12.379007 8.371385 17.45157
000040 67 ed 62 41 a6 26 24 41 3d 24 90 41 fd 78 8f 41
       14.18296 10.259436 18.017694 17.934076
000050 ba 03 89 41 95 65 db 3f 7c 20 13 41 3d c2 2f 41
       17.12682 1.7140375 9.195431 10.984921
000060 6f 51 84 41 1f a5 8f 41 f9 d6 8a 41 bc 4c 87 41
       16.539762 17.955626 17.354967 16.912468
000070 63 af 8c 41 34 58 57 41 4b e9 11 41 18 62 92 41
       17.585638 13.459034 9.119456 18.297897

weight f4 [32, 2]
000000 85 38 90 c1 4d 7b 89 41 e4 aa 8d c1 05 7d 8f 41
       -18.027597 17.185205 -17.708443 17.936045
000010 56 a2 90 c1 08 ec 8d 41 90 e6 8a c1 81 2b 92 41
       -18.079266 17.74025 -17.36258 18.271242
000020 dd e8 8f c1 59 0d 91 41 4d de 24 c1 b3 f3 0d 41
       -17.988703 18.131517 -10.304273 8.871997
000030 46 45 1c c0 45 64 61 40 74 3f 8d c1 ba bf 8c 41
       -2.441728 3.521745 -17.655983 17.593616
000040 c0 23 9c c0 bb 54 37 41 88 1c 91 c1 cd c3 94 41
       -4.879364 11.458186 -18.138931 18.595606
000050 ea 0e e8 c0 81 4f 18 41 9e 49 8f c1 cf fe 88 41
       -7.2518206 9.51941 -17.910946 17.124418
000060 79 46 2e bf 3b de 2c 41 b8 6b 47 c1 ef 4f 34 41
       -0.6807628 10.8042555 -12.4637985 11.269515
000070 fa c3 08 c1 22 33 db 40 af d1 8c c1 b4 01 8e 41
       -8.547846 6.849992 -17.602385 17.750832
000080 ab af 10 c1 70 2b a7 40 9a 62 cc c0 73 92 1a 41
       -9.042888 5.2240524 -6.3870363 9.660754
000090 42 87 8e c1 2a b5 8a 41 ef dc 90 c1 69 78 8c 41
       -17.816044 17.338459 -18.107878 17.558794
0000a0 99 2c 90 c1 bc 2e 8b 41 b1 ac 8b bf a7 bb 14 40
       -18.021776 17.39782 -1.0912076 2.3239534
0000b0 ae b0 d6 c0 58 85 14 41 59 f9 b5 c0 be 62 2c 40
       -6.7090673 9.282555 -5.686688 2.6935267
0000c0 43 a7 8f c1 e9 1f 8c 41 c5 fc 8f c1 74 49 92 41
       -17.95667 17.515581 -17.998423 18.285866
0000d0 8d 56 8e c1 9d ce 8d 41 23 74 90 c1 12 83 8a 41
       -17.792261 17.725885 -18.056707 17.314
0000e0 f0 ab 8f c1 84 a4 8b 41 dc a6 1a c1 a0 c9 c8 40
       -17.958954 17.45533 -9.665737 6.2746124
0000f0 b6 7d 6a c0 bf e7 db 40 6b 7b 90 c1 70 43 91 41
       -3.6639228 6.8720393 -18.060263 18.157928

weight f4 [32, 32]
000000 7b d7 8b be ad ea 14 be 14 05 8a be 6f 21 82 be
       -0.27312836 -0.14542647 -0.26957 -0.25416133
000010 10 e8 5d be 42 73 c9 bd 53 10 2d bd ac 8f 12 be
       -0.21670556 -0.09836437 -0.042251896 -0.14312619
000020 67 ae e7 be ae 1a 93 be 1f 3c 22 be 11 32 0a be
       -0.45250246 -0.28731292 -0.15843247 -0.13495661
000030 a7 5e 8f 3c 57 03 33 be 59 94 1e be 50 46 b2 3c
       0.017501188 -0.17481743 -0.15486278 0.021762043
000040 48 f3 9d 3c f1 3b aa be 06 72 29 be 09 8f ea bd
       0.019281045 -0.33248857 -0.16547403 -0.11453063
000050 40 c2 8c bd 1a d1 ac be e0 5e db bc 99 5c 87 be
       -0.06872988 -0.33753282 -0.026778638 -0.26437834
000060 e0 42 1c be 78 a0 01 be 58 67 84 be 8e 90 3c bc
       -0.15259886 -0.1265887 -0.25860095 -0.011509074
000070 56 0c 92 be 12 f1 12 be e8 f8 d0 bd 72 69 96 be
       -0.28525037 -0.14349774 -0.10203725 -0.29377323
000080 00 d5 b8 3d 12 e6 29 be 37 ab 25 be 05 63 c5 bc
       0.090250015 -0.16591671 -0.16178595 -0.024095068
000090 ca 3b dc 3d 6a ae 48 be da 7c 62 bc 0a db a7 3d
       0.10753591 -0.19597784 -0.013823712 0.08196075
0000a0 72 a5 31 be 07 5b 90 3d 63 99 66 be 78 cb c5 3d
       -0.17348269 0.07048612 -0.2251945 0.09657949
0000b0 65 36 52 be 61 e5 0d be 2e be de 3d 80 7e c1 bc
       -0.20528562 -0.13857032 0.10876118 -0.02361989
0000c0 a3 65 10 3d 19 02 e7 bd 35 4d 49 be 2c 02 94 3d
       0.03525318 -0.11279697 -0.19658358 0.07226977
0000d0 66 db 9f bd d0 18 b4 bd c1 bc 3d be 50 4b 0a bc
       -0.07805519 -0.08793795 -0.18529035 -0.008440807
0000e0 ec fc 18 be 12 03 a4 3d 2f ae f9 3d 7d ec 22 be
       -0.14940232 0.08008398 0.12191426 -0.15910526
0000f0 9f 10 a0 bd 72 df e5 bd 19 33 44 be f7 b5 6e bd
       -0.0781567 -0.112242594 -0.19160117 -0.058279004
000100 79 b9 f6 40 ee 47 ed 40 c5 e2 f3 40 d0 15 f5 40
       7.7101407 7.4150305 7.621432 7.6589127
000110 95 0a f0 40 8b c5 03 41 8a 5d 67 41 d9 8b f5 40
       7.5012918 8.235728 14.460337 7.6733212
000120 69 fe 41 41 c1 5f f3 40 09 18 29 41 b9 d0 ef 40
       12.124612 7.6054387 10.568368 7.494229
000130 c6 6c 83 41 0f 02 03 41 16 6e 20 41 2e 37 ef 40
       16.428112 8.188003 10.026876 7.475486
000140 23 48 0b 41 76 df 2a 41 5b 38 f6 40 d1 94 ec 40
       8.7051115 10.679556 7.6943793 7.393166
000150 71 5f f2 40 a3 79 19 41 66 42 24 41 32 e6 a4 41
       7.5741506 9.592196 10.266211 20.6124
000160 d4 d9 f2 40 ba 21 f0 40 f4 0a f6 40 a1 e1 f3 40
       7.5890903 7.504117 7.688837 7.6212926
000170 b1 5d f4 40 6f df 07 41 ae 7d 84 41 11 e7 ec 40
       7.636437 8.492049 16.561367 7.4032063
000180 d2 00 7e 41 d1 c6 80 41 c6 e5 7c 41 6d 8a 7d 41
       15.8752 16.097078 15.806097 15.846295
000190 4b f1 7e 41 5f 96 24 41 a4 4b 29 41 77 59 81 41
       15.933909 10.286712 10.580967 16.168684
0001a0 68 f8 1f 41 1b dd 7c 41 ce 60 0f 41 8f f4 7f 41
       9.998146 15.803981 8.961134 15.997207
0001b0 f8 32 5a 41 91 7a 37 41 1c 0f 0e 41 82 ed 7c 41
       13.637444 11.467423 8.878689 15.807985
0001c0 55 3c 34 41 a0 eb 13 41 0c e7 81 41 fb 7c 7e 41
       11.2647295 9.245026 16.237816 15.905513
0001d0 36 58 80 41 d1 9a 48 c1 79 16 10 41 ce de a8 41
       16.043072 -12.537797 9.0054865 21.108791
0001e0 a9 b0 7c 41 6e 7a 7c 41 3c 3a 80 41 6a d0 7a 41
       15.79313 15.77989 16.028435 15.675882
0001f0 c6 1f 7f 41 20 fb 38 40 0e f6 a0 40 a0 21 7c 41
       15.945257 2.8903275 5.030036 15.758209
000200 32 46 7c 41 75 66 7e 41 9e 6c 7e 41 14 8a 74 41
       15.767138 15.900014 15.901518 15.2837105
000210 32 51 7d 41 72 79 25 41 5f 3a 1f 41 0e 0e 80 41
       15.832323 10.34215 9.951751 16.006863
000220 90 ac 20 41 1c 30 7d 41 43 ba 0c 41 44 d0 7d 41
       10.0421295 15.824245 8.795474 15.863346
000230 38 6d 58 41 ac 5d 38 41 ac 50 11 41 84 3f 80 41
       13.526665 11.522869 9.082195 16.031013
000240 3d 5a 35 41 5a 21 11 41 9a 2d 7f 41 fb a2 7e 41
       11.334531 9.070642 15.948633 15.91479
000250 bd 56 7b 41 dc 7a 1b c1 c6 a2 10 41 51 7f a8 41
       15.708676 -9.717495 9.03974 21.062166
000260 0e 28 7e 41 4d 8c 7c 41 64 51 7f 41 53 49 7f 41
       15.884779 15.784253 15.957371 15.955401
000270 f6 6a 7d 41 5a 44 1f 40 19 a2 9e 40 ab 5d 7d 41
       15.8386135 2.4885468 4.9572873 15.835368
000280 b9 59 25 41 52 10 24 41 52 d5 23 41 98 00 27 41
       10.334405 10.253984 10.23958 10.437645
000290 9d 3e 25 41 59 ab 61 41 5b 35 94 41 b3 4d 28 41
       10.327786 14.104333 18.526052 10.51897
0002a0 b0 f4 82 41 85 06 25 41 dd a0 1e 41 06 13 29 41
       16.369476 10.314092 9.914273 10.567144
0002b0 e1 a5 a5 41 86 8b 44 41 30 fd 10 41 f4 8e 29 41
       20.705996 12.284063 9.061813 10.597401
0002c0 53 9a 87 41 7f e1 1f 41 43 53 26 41 5f f5 28 41
       16.950354 9.992553 10.395328 10.559905
0002d0 74 e3 27 41 4b 49 48 41 31 8b 17 41 09 9f c6 41
       10.493031 12.517894 9.471482 24.827654
0002e0 49 82 25 41 ff 8a 26 41 d8 6f 28 41 fc cc 24 41
       10.344308 10.408935 10.527306 10.300045
0002f0 f7 69 26 41 64 7d 7d 41 a1 32 a2 41 11 a7 28 41
       10.40087 15.843113 20.274721 10.540788
000300 ec 4c e7 3c c4 f7 90 bd 54 11 24 be 6c a6 6d c0
       0.028234921 -0.070785075 -0.16022235 -3.7132826
000310 26 bf b4 bd db dd 71 c0 4f 1a 8f 41 f1 0e e8 bb
       -0.08825521 -3.779166 17.887846 -0.0070818593
000320 a9 c6 7d 41 3d a6 6c be ce f9 7b c0 45 c2 a6 3c
       15.861001 -0.2311029 -3.9371219 0.020356307
000330 fe e0 a2 41 32 25 72 c0 b8 42 76 c0 55 60 67 c0
       20.35986 -3.7835202 -3.8478222 -3.6152546
000340 74 6a 28 be b5 26 a6 3f d7 b3 54 be 91 ee 94 be
       -0.16446859 1.2980562 -0.20771728 -0.29088262
000350 aa ce ca bd d5 5e d4 c0 b5 d1 43 c0 b4 31 b4 c1
       -0.09902699 -6.636576 -3.0596745 -22.52427
000360 a8 44 8d be e3 c8 c7 bd ea 95 48 be 41 64 07 be
       -0.27591443 -0.09755113 -0.19588438 -0.13221838
000370 de e1 8f be 47 64 65 c0 dc 63 1a 42 1a bc ee bd
       -0.2810201 -3.5842454 38.59752 -0.11656971
000380 41 eb 7c 41 e4 ad 80 41 ce 64 7c 41 d5 ea 79 41
       15.807435 16.084908 15.7746105 15.619832
000390 88 04 7d 41 08 97 28 41 4c 2b 65 41 68 f3 7f 41
       15.813606 10.536873 14.323071 15.996925
0003a0 87 4b 22 41 56 30 79 41 4a c2 0d 41 79 51 7f 41
       10.143439 15.574301 8.859934 15.957391
0003b0 33 5e 5a 41 94 db 34 41 43 b9 0e 41 af f9 7c 41
       13.647998 11.303608 8.92023 15.810958
0003c0 1d 8b 35 41 01 c4 13 41 b3 15 80 41 ec 7d 7f 41
       11.346463 9.2353525 16.010595 15.968243
0003d0 f0 ac 7e 41 ad d4 19 c1 8a 8c 0e 41 86 90 a8 41
       15.917221 -9.614423 8.909311 21.070568
0003e0 d0 ff 7b 41 78 36 7d 41 f2 d5 7d 41 bd a8 7d 41
       15.749954 15.825798 15.864733 15.853696
0003f0 05 74 7d 41 36 72 24 40 41 62 a2 40 0b 26 7e 41
       15.840825 2.569471 5.074494 15.884288

bias f4 [32]
000000 4e 47 93 be 5d f0 cd bd 0d ee ba 40 c5 cd 23 41
       -0.2876534 -0.10055611 5.841559 10.237737
000010 1d 74 28 41 1b 9e 0b 41 c9 10 3d 41 7a 45 b7 be
       10.528348 8.7261 11.816598 -0.35795194
000020 cd a6 28 be e0 4f ec 40 f4 da a7 40 0a a5 03 41
       -0.1646988 7.3847504 5.2454777 8.227793
000030 e9 b7 a8 be 4d 61 9b 40 b1 65 6c 41 96 e3 87 be
       -0.32952812 4.8556275 14.774827 -0.26540822
000040 53 53 64 41 57 4c bf be d4 cb f2 be db 64 7c be
       14.270343 -0.3736293 -0.47421134 -0.24647848
000050 87 77 0c 41 39 c3 a6 40 fb f7 aa be 26 f0 0c 41
       8.7791815 5.211331 -0.3339232 8.80863
000060 1e fa a3 40 43 02 6e 41 58 e7 26 be 2c 04 ee 40
       5.124282 14.875552 -0.16299188 7.4380093
000070 7b 6f 0c 41 8c 13 ca be 7b 70 b7 40 3d f8 ab be
       8.777217 -0.39468038 5.7324805 -0.33587828

weight f4 [32, 32]
000000 53 9d 52 bd 07 f1 09 be 0e f0 b6 be 87 7a 9c be
       -0.051419567 -0.13470851 -0.35730022 -0.3056223
000010 6d 65 2d be c5 f1 8e bd 47 63 14 bd 0b ae 52 bd
       -0.16933222 -0.06979708 -0.03622749 -0.05143551
000020 a6 a1 cc bd 2e a9 d7 be 52 77 27 be 08 eb 89 be
       -0.099917695 -0.4212126 -0.16354111 -0.26937127
000030 bb 61 9f be 08 e4 72 bd dd 03 1e 3e f2 3c 0f be
       -0.3112925 -0.0592995 0.15431161 -0.13988093
000040 66 30 fa bd 09 87 37 bf 59 9f 5c bc 68 45 91 bd
       -0.122162625 -0.7169042 -0.013465726 -0.07093316
000050 b8 f1 d8 bd ab e3 69 bf 60 e8 ef 3c a8 36 f9 bd
       -0.10592979 -0.9136302 0.02928561 -0.12168628
000060 f3 52 1a bb f8 21 90 be 3b 91 08 bb d8 b8 41 3d
       -0.0023547977 -0.28150916 -0.0020838517 0.04729542
000070 6e 32 a3 be 91 67 30 bd ce a3 26 be 1b e8 05 be
       -0.31874412 -0.04306752 -0.16273424 -0.13076822
000080 e8 0d bb bc af 65 b2 3d 3b 40 3a be 46 12 39 be
       -0.02283378 0.08710801 -0.18188564 -0.18073377
000090 c8 28 c6 3d 3d 57 fb b8 e6 34 3e be 96 bc ca 3d
       0.09675747 -0.00011984862 -0.18574867 0.09899251
0000a0 f0 95 73 bc a9 d1 c0 3d 78 72 1d be 4b 1f 8a bd
       -0.014867291 0.094149895 -0.15375698 -0.0674425
0000b0 c8 9b 1b be eb 35 df 3c 71 fd 0e 3e 8f 2a 86 3d
       -0.15196145 0.02724739 0.13963868 0.06551086
0000c0 e3 6d c9 bd 80 b3 a5 bd 06 a1 2b be 4a ec a2 bd
       -0.09835412 -0.080908775 -0.16760644 -0.07955225
0000d0 d6 a2 b5 bd 10 71 ce be 2b 8d d4 bd 12 82 cd bb
       -0.08868949 -0.40320635 -0.10378488 -0.006271609
0000e0 68 cf 13 be 1a 96 76 be 88 70 5d be 70 8d c0 3c
       -0.14434588 -0.24080697 -0.21624959 0.023504943
0000f0 5e f0 01 bc 01 2c 6d 3d 5e f6 f8 bd c8 36 bf bd
       -0.007930843 0.057903294 -0.12156366 -0.093366206
000100 5f fb d4 40 fb e6 ee 40 6b 61 e9 40 2e 40 f5 40
       6.655685 7.465696 7.293142 7.6640844
000110 95 8c ea 40 bc f4 02 41 2e 4c 0a 40 fa ff f9 40
       7.329661 8.18475 2.1608996 7.812497
000120 cc 5d 12 41 97 20 ec 40 02 5e 30 41 bb db f4 40
       9.1479 7.3789783 11.022951 7.6518226
000130 a5 66 fb 40 1b 8e 05 41 35 18 27 41 f8 6d f3 40
       7.85628 8.347194 10.44341 7.607174
000140 3a c2 06 41 0d 46 2f 41 8e 92 eb 40 7a 9b f3 40
       8.422419 10.954602 7.36164 7.612729
000150 a2 5b e7 40 06 7d 35 41 9e ba 21 41 63 27 8f 41
       7.2299356 11.343023 10.108061 17.894232
000160 d4 dc ef 40 c9 59 f4 40 dc de ef 40 4a 25 df 40
       7.4957066 7.63596 7.4959545 6.973302
000170 80 3d de 40 d4 ca 06 41 ec f7 05 c0 12 7b dc 40
       6.9450073 8.424519 -2.093257 6.890023
000180 a2 20 83 41 91 f4 81 41 8c 26 82 41 a2 13 81 41
       16.390934 16.244417 16.268822 16.134586
000190 f9 85 82 41 55 d6 4d 41 71 f5 44 3f 7e 08 7f 41
       16.315416 12.864827 0.76937014 15.939573
0001a0 77 5d 29 c0 5c 7a 80 41 3a 36 1c 41 e0 73 81 41
       -2.6463296 16.059746 9.763239 16.18158
0001b0 ad 6d b7 3f c7 d9 3b 41 63 f1 0f 41 4b d8 82 41
       1.4330345 11.740668 8.996432 16.355612
0001c0 53 49 1d 41 3b a6 27 41 10 ba 7f 41 80 4b 81 41
       9.830401 10.478084 15.982925 16.161865
0001d0 f2 fb 81 41 de 2f a4 3d 68 74 23 41 6f e1 49 41
       16.24802 0.080169424 10.2159195 12.6175375
0001e0 70 1a 83 41 d7 69 82 41 21 d8 83 41 20 92 82 41
       16.387909 16.30168 16.480532 16.32135
0001f0 ed 2a 82 41 be 68 61 41 5b ed e0 c0 68 bc 81 41
       16.27096 14.088072 -7.028974 16.216995
000200 7a 82 83 41 78 91 81 41 33 48 81 41 e4 38 81 41
       16.43871 16.19603 16.160254 16.152779
000210 1f 6d 82 41 6f 07 48 41 1d 33 3c bf 53 7c 7d 41
       16.303282 12.501815 -0.7351549 15.842853
000220 87 34 0f c0 00 c6 81 41 26 48 1e 41 2a 27 83 41
       -2.237581 16.22168 9.892614 16.394123
000230 16 5e 0d c1 4f 70 37 41 fb 74 0f 41 b0 c8 81 41
       -8.83547 11.464919 8.96606 16.222992
000240 ec 26 23 41 6d 61 24 41 3f 85 7e 41 a7 7e 7f 41
       10.197002 10.273786 15.907531 15.968421
000250 2a ea 82 41 e1 0b 8e 40 85 a5 24 41 b7 68 83 41
       16.364338 4.43895 10.29041 16.42613
000260 9a 12 84 41 22 b3 80 41 0f f0 82 41 76 2d 83 41
       16.509083 16.087467 16.367216 16.397198
000270 a5 33 81 41 01 34 59 41 ec 0c 0b c0 11 d3 80 41
       16.150217 13.575196 -2.1726637 16.10306
000280 ed 86 2f 41 a7 41 2d 41 30 d9 2c 41 b2 9f 2c 41
       10.970441 10.828528 10.803024 10.788988
000290 60 ea 2a 41 67 a0 71 41 fa 48 05 41 b1 88 2e 41
       10.68222 15.101661 8.330317 10.908372
0002a0 60 a7 5d 41 16 2f 2b 41 48 8c 1c 41 0b e5 2a 41
       13.853363 10.698996 9.784248 10.680919
0002b0 57 d9 57 41 df be 4e 41 8b 30 13 41 70 f6 2e 41
       13.4905615 12.921599 9.199351 10.935165
0002c0 b7 16 8e 41 ca cb 1d 41 93 f9 2e 41 2c 72 2c 41
       17.761091 9.862253 10.935931 10.777874
0002d0 8c 87 2e 41 e7 db 5a 41 6a a8 15 41 68 32 ad 41
       10.9080925 13.678687 9.353617 21.649612
0002e0 06 0c 2f 41 12 bc 2c 41 73 42 2f 41 4e bb 2a 41
       10.940435 10.795916 10.953723 10.670729
0002f0 2d 3d 2c 41 89 a2 7e 41 17 c3 5e 40 e2 43 2e 41
       10.7649355 15.914681 3.4806573 10.891573
000300 ff be 0d 3d 7c e9 8c be 80 9f 49 bd 4a 6d 86 be
       0.034605976 -0.27521884 -0.049224377 -0.26255256
000310 dd 93 28 be 44 30 b3 c0 7b 21 79 41 5d 48 fa bd
       -0.16462655 -5.599642 15.570674 -0.122208335
000320 b4 dc 43 41 58 fd b5 bd 0c e3 ef bf 2b 98 ef bd
       12.241383 -0.08886212 -1.8741164 -0.116989456
000330 32 13 2c 41 bd dd a5 c0 c2 09 c2 c0 6e cf 54 be
       10.754686 -5.1833177 -6.063691 -0.20782253
000340 b4 0b 7c bb 09 e7 bc c0 f5 19 c9 bd b8 03 98 be
       -0.0038459124 -5.9032025 -0.09819404 -0.29690337
000350 dc 28 59 be 56 f6 be 41 23 94 bf bf bb 8a 1a c2
       -0.21206993 23.870281 -1.4967083 -38.63548
000360 d5 6d 6e be fe 0e 88 be 81 68 41 3d c1 37 3b be
       -0.23284085 -0.26573938 0.047218803 -0.18282987
000370 2b 4f 9f bd 8f dc b6 c0 6d 24 e3 41 71 8c 14 be
       -0.07778772 -5.7144237 28.392786 -0.14506699
000380 ab 0a 82 41 14 d2 82 41 b7 4e 81 41 b1 48 83 41
       16.255209 16.352577 16.163435 16.410494
000390 79 78 81 41 16 ac 46 41 14 a0 bf 40 a4 27 83 41
       16.183825 12.417013 5.988291 16.394356
0003a0 9f dc 47 40 5f ed 81 41 6b 41 1e 41 f6 1a 83 41
       3.1228406 16.240904 9.890971 16.388165
0003b0 7f 4f 11 40 53 11 39 41 f2 b3 13 41 c0 88 82 41
       2.270477 11.56673 9.231432 16.316772
0003c0 9d df 1c 41 0b d8 1d 41 a1 4d 83 41 e7 42 83 41
       9.804593 9.865245 16.412905 16.407667
0003d0 a7 c2 83 41 bc 07 c4 c1 7e 14 27 41 34 6b b0 41
       16.470045 -24.503777 10.442503 22.052345
0003e0 15 08 83 41 ed b0 81 41 2d ec 81 41 1d 4b 83 41
       16.378946 16.21139 16.24032 16.411676
0003f0 76 3d 81 41 8c ad 5f 41 80 8c ff 3e 7c 68 81 41
       16.15501 13.97987 0.4991188 16.176018

weight f4 [1, 32]
000000 50 0d f7 bd 52 18 79 ba 28 26 1d c1 9b 2a 47 c1
       -0.12063086 -0.000950222 -9.8218155 -12.447902
000010 43 34 47 c1 dd da 26 c1 d2 48 16 42 59 a7 46 c1
       -12.450259 -10.428433 37.571114 -12.415856
000020 81 4a c8 bc 32 38 2c c1 9d ec 08 c1 c6 61 1f c1
       -0.024449589 -10.76372 -8.557767 -9.96137
000030 fc 1f 3e 3c 46 06 e8 c0 37 0e 13 41 58 ad 7e bd
       0.011604305 -7.250766 9.19097 -0.062177032
000040 85 bc 23 42 dc 16 0a 3e ed d6 cf bd 93 d4 f4 bb
       40.9341 0.13485283 -0.10148416 -0.00747163
000050 25 fe 2a c1 cc 7c 0a c1 5b 4d 46 c1 d7 e5 2a c1
       -10.687047 -8.655468 -12.393886 -10.681113
000060 25 f5 08 c1 c6 78 10 41 50 ae 83 bd 3a da 36 c1
       -8.55985 9.029486 -0.06429732 -11.428278
000070 c2 c7 2a c1 f5 40 e6 bd 26 91 23 c1 02 5c 06 c1
       -10.673769 -0.11242858 -10.222937 -8.397463

weight f4 [1, 32]
000000 70 b7 00 3e 88 2f 10 3e 4a 9f cd c0 0d c2 d0 c0
       0.12569976 0.14080632 -6.4256945 -6.523688
000010 54 98 d0 c0 c6 50 99 c0 a5 26 89 3f 55 b9 cf c0
       -6.5185947 -4.79111 1.0714918 -6.4913735
000020 ea 4d f1 bd 78 55 92 c0 d6 b9 a7 c0 96 2f 9a c0
       -0.11782439 -4.572933 -5.241435 -4.818309
000030 4b b7 e7 3c 45 27 c7 c0 2d 98 e0 40 ce 7e 01 3e
       0.028285643 -6.2235436 7.018576 0.12646028
000040 3a 69 8d 41 34 c2 41 3c d4 ac 42 be 9f 8b 03 be
       17.67638 0.011826087 -0.19011241 -0.1284623
000050 85 40 ad c0 61 84 ac c0 73 04 d1 c0 f4 8b a3 c0
       -5.414126 -5.3911595 -6.531793 -5.110834
000060 e6 b5 af c0 e8 65 ef 40 d3 cc 0b 3e 44 61 dc c0
       -5.4909544 7.4811897 0.13652353 -6.8868732
000070 8f a6 9b c0 2e c5 0e be 38 51 db c0 d5 7c 5f c0
       -4.864082 -0.13942406 -6.8536644 -3.4919941
