data/test1/model_value1.pt (torch, 18626 bytes, 8 tensors)

weight f4 [32, 2]
0	0xc1b21548	-22.260391
1	0x41aea0ed	21.828577
2	0xc1acec51	-21.615389
3	0x41a99e59	21.202318
4	0xc1a8ba93	-21.0911
5	0x41a70ff6	20.882793
6	0xc1afcc62	-21.974796
7	0x41b4978a	22.573994
8	0xc17b2730	-15.697067
9	0x41608cc7	14.034369
10	0x41abbc33	21.466894
11	0x40bc0cd5	5.8765664
12	0x40a3dad0	5.1204605
13	0xc064dab4	-3.5758486
14	0xc12ec42c	-10.922894
15	0x413a86a6	11.657873
16	0xc1b5579b	-22.667776
17	0x41b3b486	22.463146
18	0xc133846c	-11.21983
19	0x412a1831	10.630906
20	0xc0841a6b	-4.128225
21	0x40b2f870	5.592827
22	0xc1ae9724	-21.8238
23	0x41ae3aed	21.778772
24	0xc0010de8	-2.0164738
25	0x409166bc	4.543791
26	0xc12137d4	-10.07613
27	0x40c1c957	6.0558276
28	0xc0d3be06	-6.616946
29	0x40235db9	2.5525954
30	0xc17d5ced	-15.835187
31	0x4160a823	14.041049
32	0xc1b5cbcf	-22.724516
33	0x41af6756	21.925457
34	0xc11b5833	-9.709033
35	0x409acddb	4.837629
36	0xc14189c4	-12.096134
37	0x40f49c5d	7.6440873
38	0xc1b76c93	-22.928015
39	0x41b2e8ee	22.363735
40	0xc1b1d7fd	-22.230463
41	0x41af85e0	21.940369
42	0x406955f8	3.645872
43	0xbfa65c7a	-1.2996972
44	0xc1b270d4	-22.305092
45	0x41b34d97	22.412886
46	0xbc16c675	-0.009202589
47	0x409167b9	4.5439115
48	0xc139accb	-11.604686
49	0x40803d29	4.007466
50	0xc1b46cab	-22.55306
51	0x41b0aac8	22.08339
52	0x4188f5c8	17.12001
53	0x41164406	9.391607
54	0xc1b2c8bf	-22.34802
55	0x41b28909	22.316912
56	0xc1b5f8a3	-22.746405
57	0x41b21485	22.26002
58	0xbfd1d020	-1.639164
59	0x3f923473	1.1422256
60	0xc1a92110	-21.141144
61	0x41aeab0f	21.833525
62	0x4107c853	8.486407
63	0x4082c279	4.0862393

bias f4 [32]
0	0x41b0268c	22.018822
1	0x41b92b84	23.146248
2	0x41b64006	22.781261
3	0x41b1910e	22.195827
4	0x41821cc5	16.264048
5	0x4124d682	10.30237
6	0x41b2c88b	22.347921
7	0x41420a71	12.127549
8	0x41b483be	22.564327
9	0x41505e29	13.022988
10	0x41de748c	27.806908
11	0x41ae1176	21.758526
12	0x41d739a2	26.903141
13	0x41d31d5d	26.389338
14	0x415fb3ae	13.981367
15	0x41824f24	16.288643
16	0x41b52c0f	22.646513
17	0x41776158	15.461266
18	0x41603ea3	14.015292
19	0x41ba2cf7	23.271955
20	0x41af9f84	21.952888
21	0x41f7c34f	30.970366
22	0x41b55959	22.668627
23	0x4120dd27	10.053992
24	0x416d01d5	14.812947
25	0x41b690af	22.820646
26	0x41242c11	10.260758
27	0x41b28b7e	22.318111
28	0x41b71378	22.884506
29	0x41c7b347	24.962538
30	0x41b68722	22.815983
31	0x416df25c	14.87167

weight f4 [32, 2]
0	0xc1b6d71a	-22.85503
1	0x41b25cd0	22.295319
2	0xc1ba44f0	-23.28366
3	0x41b8d0e1	23.101992
4	0xc1b55604	-22.667
5	0x41bca4dd	23.5805
6	0xc1b72018	-22.89067
7	0x41af982d	21.949305
8	0xc1246ca6	-10.2765255
9	0x41726d76	15.151724
10	0x419ee55c	19.861992
11	0x3f83cc56	1.0296733
12	0x3fec51b8	1.8462439
13	0xbe96917a	-0.29407865
14	0xc136a03d	-11.414121
15	0x4137845a	11.469812
16	0xc1b54bcc	-22.66201
17	0x41b9b3a6	23.212719
18	0xc130b724	-11.044712
19	0x413db8f4	11.857655
20	0x3fff26b8	1.9933691
21	0xbd913d4a	-0.07091768
22	0xc1b6d7a4	-22.855293
23	0x41b5b5ae	22.71371
24	0x402123ee	2.517818
25	0x3eb23119	0.34803084
26	0xbf3d4f30	-0.73948956
27	0xbeb69df0	-0.35667372
28	0xc1250699	-10.314111
29	0x40271987	2.610933
30	0xc1270b36	-10.440237
31	0x416c4020	14.7656555
32	0xc1b892a1	-23.071596
33	0x41b5208f	22.640898
34	0xc11985a3	-9.595126
35	0x40ae8259	5.4534116
36	0xc0c29661	-6.080857
37	0x411463a0	9.2743225
38	0xc1b2ce5f	-22.350767
39	0x41b9b1c5	23.211802
40	0xc1b81928	-23.012283
41	0x41b1fd80	22.24878
42	0xbf5fde3e	-0.8744849
43	0x3f1c620c	0.6108711
44	0xc1b4cb38	-22.599228
45	0x41b5ddb3	22.733252
46	0xbfa10aa0	-1.2581367
47	0x40fe7ed5	7.9529824
48	0xc0983dd9	-4.75755
49	0x41231d50	10.194656
50	0xc1b47c26	-22.56062
51	0x41b6ada8	22.834793
52	0x419d6456	19.673992
53	0x3f3b7e6b	0.73239774
54	0xc1b60257	-22.751143
55	0x41b13ead	22.155603
56	0xc1b2647b	-22.299063
57	0x41b9539e	23.165829
58	0x4001e7c2	2.0297704
59	0x3d51b6e6	0.051199816
60	0xc1b67068	-22.804886
61	0x41b7d35a	22.978199
62	0x4009dbcc	2.1540403
63	0x402ad32a	2.6691384

weight f4 [32, 32]
0	0x41672d09	14.448495
1	0x41651df0	14.319809
2	0x4165dae8	14.365944
3	0x4168e83e	14.5567
4	0x418800e9	17.000444
5	0xc1bc5288	-23.540298
6	0x419ae0c6	19.359753
7	0x4158d454	13.551838
8	0x4165f358	14.37191
9	0x419b348f	19.400663
10	0x4195ca36	18.723736
11	0x4167a12a	14.476847
12	0x419682f3	18.81394
13	0x40e46fe0	7.1386566
14	0x419af9dd	19.372004
15	0x41873b1e	16.903866
16	0x416695c2	14.411562
17	0x41afe509	21.986834
18	0x419be4c2	19.486698
19	0x416501f3	14.312976
20	0x4165851d	14.344998
21	0x40f076d7	7.514507
22	0x41690b3e	14.565245
23	0x41adb4c8	21.713272
24	0x41b079df	22.059507
25	0x4169628d	14.58656
26	0xc1ba5882	-23.293217
27	0x41683578	14.513054
28	0x416438e9	14.263894
29	0x419042e5	18.032663
30	0x41683305	14.512456
31	0x4195a262	18.704288
32	0x415871c1	13.527772
33	0x415a5431	13.645555
34	0x415c2ec4	13.761417
35	0x415b2178	13.695671
36	0x41865947	16.793592
37	0xc2019d13	-32.403393
38	0x415b489e	13.705229
39	0x414adce4	12.678928
40	0x415ce158	13.805016
41	0x419563f8	18.673813
42	0x41580206	13.500494
43	0x415970aa	13.590006
44	0x41522ddf	13.136199
45	0x40699af2	3.650082
46	0x419da696	19.70634
47	0x4184c28a	16.59499
48	0x415bbf57	13.734214
49	0x41b2db90	22.357208
50	0x41966e19	18.803759
51	0x415c1cb2	13.757006
52	0x41598053	13.593829
53	0x408dfec8	4.437351
54	0x415a052b	13.626262
55	0x41a4e347	20.610975
56	0x41a7885c	20.941582
57	0x4158be40	13.546448
58	0xc20111bf	-32.26733
59	0x415be8f6	13.744375
60	0x415b7584	13.71619
61	0x41540f7c	13.25378
62	0x415b76cb	13.716502
63	0x4187fbe5	16.997995
64	0x3bd357e0	0.0064496845
65	0xbd517a78	-0.051142186
66	0xbd342a64	-0.04398574
67	0xbe345ff5	-0.1761473
68	0xbe877d08	-0.2646258
69	0x3e2e20fd	0.17004772
70	0x3dafa85a	0.085770324
71	0xbe3bf800	-0.18356323
72	0x3e33627f	0.17518042
73	0xbd9503a3	-0.07276084
74	0xbe1a92da	-0.15095082
75	0xbe097f8c	-0.13427562
76	0xbe056122	-0.13025334
77	0xbdea18d6	-0.11430518
78	0xbe8c2822	-0.2737437
79	0xbc8ecd1d	-0.01743179
80	0xbe150909	-0.14554228
81	0xbe3b9a13	-0.18320493
82	0xbd93c184	-0.072146446
83	0xbde68ce0	-0.112573385
84	0x3d156744	0.036475435
85	0xbe5ca622	-0.2154775
86	0xbdaf5d45	-0.085627116
87	0x3def7832	0.11692847
88	0x3e2e9fcd	0.17053147
89	0xbe0c6c2e	-0.13713142
90	0xbe067b4b	-0.1313297
91	0xbdf5c1a8	-0.119998276
92	0xbe2c579b	-0.16830294
93	0xbce20d50	-0.027594239
94	0xbc58a2c0	-0.013222396
95	0xbd26dddc	-0.040738925
96	0x3d8826c5	0.0664802
97	0xbd652add	-0.05594908
98	0xbe8ee103	-0.27906045
99	0xbdd183ab	-0.10230192
100	0xbe2c4ddd	-0.16826577
101	0xbda84bce	-0.082175836
102	0xbf11d100	-0.56959534
103	0xbd9d57d5	-0.07682768
104	0xbe1b474b	-0.15163915
105	0xbe1f9f73	-0.15588169
106	0x3bf09a9a	0.0073426487
107	0xbd8cfaf6	-0.068838045
108	0xbf8b918c	-1.0903792
109	0xbfac0476	-1.3438861
110	0xbf751bc8	-0.95745516
111	0xbe5af63c	-0.21382993
112	0xbe3515b2	-0.17684057
113	0xbfbb6bcd	-1.4642273
114	0xbf1d784e	-0.61511695
115	0xbeb18111	-0.34668782
116	0x3d0c71a1	0.034288052
117	0x3ce5e7a0	0.028064549
118	0xbd8b5e10	-0.068050504
119	0xbce82160	-0.028336227
120	0xbf46008a	-0.7734457
121	0xbe03757e	-0.12837788
122	0x3df6ffc2	0.12060501
123	0xbe4463ef	-0.19178747
124	0xbea46dc9	-0.3211501
125	0xbcd46770	-0.02592823
126	0x3b1bb20a	0.0023757243
127	0xbedae9bb	-0.42756447
128	0x41202306	10.008551
129	0x4123f365	10.2469225
130	0x4122109a	10.129053
131	0x41243ae9	10.264382
132	0x418f01d7	17.875898
133	0xc1c8c6a1	-25.096987
134	0x41b6e9e9	22.864214
135	0x4131b7e2	11.107393
136	0x41237709	10.216561
137	0x41be4747	23.784803
138	0x41b80be1	23.0058
139	0x411e9f43	9.913882
140	0x41970a3b	18.879995
141	0x413bebfe	11.745115
142	0x41c501f2	24.62595
143	0x4192bab6	18.341167
144	0x411f422e	9.953657
145	0x41c4711f	24.555235
146	0x41a7fe83	20.999273
147	0x41208270	10.031845
148	0x41218d08	10.096931
149	0x3f53d1ec	0.8274219
150	0x412402a6	10.250647
151	0x41ccff32	25.624607
152	0x41be2847	23.769667
153	0x4121cd5f	10.112639
154	0xc1c574b5	-24.681986
155	0x41225c54	10.147541
156	0x411fd504	9.989506
157	0x41418494	12.094868
158	0x41214168	10.078468
159	0x4199ca5e	19.223812
160	0xbd0db696	-0.034597956
161	0xbc932b98	-0.017965123
162	0xbdf0f108	-0.11764723
163	0xbbcbc57e	-0.0062186113
164	0x3a3a6813	0.0007110845
165	0xbdff905c	-0.12478706
166	0xbe916c31	-0.28402856
167	0x3cd98a5b	0.02655523
168	0xbda3c9a0	-0.07997441
169	0x3d18c3c6	0.03729608
170	0xbe873d15	-0.2641379
171	0x3d0e5e5f	0.034757968
172	0xbe9202ed	-0.28517857
173	0xbe5d52e3	-0.2161365
174	0xbe324f9f	-0.17413186
175	0x3b854b03	0.00406778
176	0xbd64a40b	-0.055820506
177	0xbdc625c7	-0.09675174
178	0xbcc3ab7a	-0.023885477
179	0xbe86cac5	-0.26326576
180	0x3d3cd02f	0.046096977
181	0xbe14152d	-0.14461203
182	0x3c464696	0.01210179
183	0x3dbc0a5e	0.09181665
184	0xbda18d93	-0.07888331
185	0xbd20dbec	-0.039272234
186	0xbbc379a0	-0.0059654266
187	0xbe5a5cd2	-0.2132447
188	0xbe8a9a6d	-0.27070943
189	0x3d6501e8	0.05591002
190	0xbe10e299	-0.1414894
191	0x3d292bf3	0.04130168
192	0x41a2394c	20.277977
193	0x419e63fe	19.798824
194	0x41a01817	20.011763
195	0x41a1350d	20.150904
196	0x415fcd42	13.987612
197	0xc10fa09b	-8.97671
198	0xc00381bc	-2.0547934
199	0x4149b91a	12.607691
200	0x419f9bdf	19.951109
201	0x414d8d29	12.846963
202	0x40c920c7	6.285251
203	0x419fadcd	19.959864
204	0x412312eb	10.192119
205	0xbf3e2252	-0.7427112
206	0x4104ab7a	8.291864
207	0x415c6ed2	13.777056
208	0x41a12239	20.14171
209	0x41357b3c	11.3425865
210	0x4077cf65	3.8720334
211	0x41a0577e	20.04272
212	0x41a07637	20.057722
213	0xbfc75134	-1.5571656
214	0x41a1721a	20.180714
215	0x4113935c	9.223476
216	0x4136758c	11.403698
217	0x41a0aec3	20.085333
218	0xc11162d8	-9.086632
219	0x41a0e9b5	20.114115
220	0x419ef2be	19.868526
221	0x419532fd	18.649897
222	0x41a11f19	20.140184
223	0xbf6e371c	-0.9305284
224	0x414ac926	12.6741085
225	0x414da5a0	12.852936
226	0x414c6085	12.773564
227	0x414a83d7	12.657187
228	0x41899b99	17.200975
229	0xc1cd6475	-25.674051
230	0x41a6e243	20.86048
231	0x415b16b4	13.693043
232	0x414f67a3	12.962802
233	0x41a895da	21.07317
234	0x4197ec6b	18.990438
235	0x414a70eb	12.652568
236	0x41971d06	18.889172
237	0x411f21bb	9.945735
238	0x41af0054	21.87516
239	0x418d9153	17.69596
240	0x414d20dc	12.820522
241	0x41bcfe88	23.624283
242	0x419d1fa8	19.640457
243	0x414f3417	12.950217
244	0x414ed549	12.927072
245	0x411ad0b1	9.67595
246	0x414f4e72	12.956652
247	0x41bad70f	23.35501
248	0x41b7adae	22.959805
249	0x414ee47e	12.930784
250	0xc1c94ca6	-25.162426
251	0x414d5c3b	12.835017
252	0x414f3dbd	12.952573
253	0x419122f1	18.142061
254	0x414e8c32	12.909227
255	0x419a676e	19.300503

bias f4 [32]
0	0x410a5d81	8.647828
1	0x41731cc4	15.194523
2	0xbeac1d82	-0.33616263
3	0xbeaea46a	-0.34109813
4	0x408fa728	4.489155
5	0x3cd63e16	0.026152652
6	0x417d24ea	15.821512
7	0x40c7d9ac	6.2453213
8	0x405b417d	3.425872
9	0x40ca0ce2	6.3140726
10	0xbeb3ecca	-0.35141593
11	0xbe8b9301	-0.27260593
12	0x40f4ef30	7.6541977
13	0x40acaeef	5.396354
14	0xbddc9592	-0.10770716
15	0x41084b36	8.518362
16	0xbe88768f	-0.26652953
17	0xbd3343da	-0.04376588
18	0xbea33d54	-0.31882727
19	0x403b2461	2.9240954
20	0xbe4c6c2f	-0.19963144
21	0x4128c2cf	10.547561
22	0x40a7e045	5.2461267
23	0xbe10dbb0	-0.14146304
24	0xbea9c006	-0.33154315
25	0xbe974c56	-0.29550427
26	0x4086c0e9	4.2110486
27	0xc0187b97	-2.3825433
28	0xbe713d81	-0.23558618
29	0x405ef349	3.483599
30	0xbe114ce7	-0.14189492
31	0x4185d45c	16.728691

weight f4 [32, 32]
0	0x41724c2e	15.143599
1	0x41721513	15.130145
2	0x4172f233	15.184131
3	0x41723c83	15.139773
4	0x4189e1cd	17.235254
5	0xc2081109	-34.016636
6	0x416a94f5	14.661366
7	0x41576dbd	13.464292
8	0x41724cc8	15.143745
9	0x41a1864d	20.190577
10	0x417e6a52	15.900957
11	0x4171c500	15.110596
12	0x4175bc77	15.358512
13	0x40995bc0	4.79245
14	0x419c0344	19.501595
15	0x418aaa99	17.3333
16	0x4170487b	15.017695
17	0x41b7ff4d	22.999659
18	0x41a79bdf	20.951109
19	0x41738fb1	15.222581
20	0x4172e8ae	15.181807
21	0x40940ac7	4.6263156
22	0x4172004c	15.1250725
23	0x41a37506	20.43214
24	0x41ac84e1	21.564882
25	0x4173d582	15.239626
26	0xc207619e	-33.84533
27	0x416f7600	14.966309
28	0x4170decc	15.054394
29	0x4179c646	15.610907
30	0x4171c796	15.111227
31	0x41904a7d	18.036371
32	0x41601ea6	14.007483
33	0x41607a3e	14.029844
34	0x416370cb	14.215037
35	0x415fce57	13.987876
36	0x41e6a665	28.831247
37	0xc190470e	-18.034695
38	0x420c8340	35.128174
39	0x41ba0adc	23.255302
40	0x415ea1b1	13.914475
41	0x41ed969b	29.698538
42	0x4209549f	34.332638
43	0x415ecd25	13.925084
44	0x41ef85c3	29.940313
45	0x41d901b3	27.12583
46	0x41e5b9ce	28.715725
47	0x41e64665	28.784372
48	0x41644147	14.265937
49	0x420af9de	34.74401
50	0x41ffdb41	31.982058
51	0x415d9bb2	13.850512
52	0x415f77c3	13.966739
53	0x41713802	15.076174
54	0x415f5a31	13.959519
55	0x416fdcb3	14.991382
56	0x41ef0fe4	29.88276
57	0x415f9573	13.973987
58	0xc18feb44	-17.989876
59	0x41637c3a	14.217829
60	0x415e97a3	13.912021
61	0x41bc0c8c	23.506126
62	0x415f0358	13.938316
63	0x412390e7	10.222877
64	0xbcbf3840	-0.023342252
65	0xbe2a44c0	-0.16627789
66	0xbe2ae74e	-0.16689798
67	0x3c58a223	0.01322225
68	0xbd6eb13a	-0.058274485
69	0xbe9d03c9	-0.3066695
70	0xbe5059fe	-0.2034683
71	0xbe0bf813	-0.13668852
72	0xbd9fe33d	-0.07807014
73	0xbe8a2621	-0.26982215
74	0xbe5dfd59	-0.21678676
75	0xbdcf83c0	-0.10132551
76	0xbcf63f5e	-0.030059513
77	0xbe69a9cf	-0.22818683
78	0xbe59a79c	-0.21255344
79	0xbd992f1c	-0.074796885
80	0xbe2ca557	-0.16859947
81	0xbe710a7a	-0.23539153
82	0xbd7170f7	-0.058945622
83	0xbdf556d4	-0.11979452
84	0xbd810393	-0.0629951
85	0xbdd10714	-0.10206428
86	0xbd8a282a	-0.06745942
87	0xbc79d09f	-0.015247493
88	0xbaadb8b8	-0.0013253903
89	0xbd08a5ae	-0.03336113
90	0xbe883c7c	-0.26608646
91	0xbdb74ed4	-0.08950582
92	0x3e0789df	0.13236187
93	0xbc4a9dd7	-0.0123667335
94	0xbcfad5c0	-0.030619502
95	0xbe999161	-0.29993728
96	0xbe394b0f	-0.18095039
97	0xbf359536	-0.709308
98	0xbeecbb36	-0.4623658
99	0xbe9d4efd	-0.30724326
100	0xbe61d15c	-0.2205252
101	0xbdc128ba	-0.09431596
102	0xbd956a4d	-0.07295666
103	0xbeb6b224	-0.35682786
104	0xbc8d6f7c	-0.017265074
105	0x3c4a41d6	0.012344798
106	0xbe4f3c6b	-0.20237891
107	0xbea0f39f	-0.31435868
108	0xbb4b46f7	-0.003101764
109	0xbe9b69e5	-0.3035423
110	0xbdf3b187	-0.11899095
111	0xbdd8d4f7	-0.10587495
112	0xbea7c30f	-0.32766005
113	0xbe91153e	-0.2833652
114	0xbe853cf8	-0.26023078
115	0x3d0089f7	0.031381574
116	0x3d2d2178	0.042268246
117	0xbe2057bb	-0.15658467
118	0x3db0e147	0.08636718
119	0xbf1ecdb2	-0.62032616
120	0x3ddd9520	0.10819459
121	0xbdaf4b59	-0.08559293
122	0x3d636578	0.05551669
123	0xbd08f216	-0.033433996
124	0xbd9a583c	-0.075363606
125	0x3e271f76	0.16320595
126	0x3d63096c	0.055428907
127	0xbb489cac	-0.0030610962
128	0x41270c48	10.440498
129	0x41268a44	10.408756
130	0x412a29b5	10.635182
131	0x4123f49a	10.247217
132	0x40000f17	2.000921
133	0xc208c464	-34.191788
134	0x419451d7	18.53996
135	0x41350ece	11.316114
136	0x4127dc99	10.491357
137	0x4155e2f5	13.367909
138	0x41a0b314	20.08744
139	0x4129d605	10.614751
140	0x419ab289	19.337175
141	0xc087661c	-4.2312145
142	0x41b83730	23.026947
143	0x4052d6b7	3.2943552
144	0x41265188	10.394905
145	0x4117258f	9.44667
146	0x41a46c3c	20.552849
147	0x41286588	10.524788
148	0x412996a7	10.59928
149	0xbfbd9d68	-1.4813662
150	0x4126d080	10.425903
151	0x41c85a38	25.044052
152	0x41ae0f03	21.75733
153	0x412ad000	10.675781
154	0xc206e210	-33.720764
155	0x4126beb5	10.421559
156	0x412978ad	10.591962
157	0x419fa39f	19.954893
158	0x41297bed	10.592755
159	0x413fde8d	11.991834
160	0xbee957e7	-0.45574877
161	0xbdebe3a1	-0.11518026
162	0xbe2fd59f	-0.17171334
163	0xbe90c53e	-0.28275484
164	0xbde4537e	-0.11148737
165	0xbdf138e5	-0.1177843
166	0xbdbf1b95	-0.09331433
167	0xbea8af4f	-0.3294625
168	0xbdd72de3	-0.10506799
169	0xbe83d666	-0.2574951
170	0xbcb9a550	-0.022661835
171	0xbe94591e	-0.2897424
172	0xbd29ff32	-0.04150314
173	0xbe680155	-0.22656758
174	0x3d30fa1e	0.04320728
175	0xbe425c3a	-0.18980494
176	0xbe85adba	-0.26109105
177	0xbdec0996	-0.11525266
178	0xbde94198	-0.11389464
179	0xbeb5e584	-0.3552667
180	0xbecf940f	-0.40542647
181	0xbaf7c4a7	-0.0018903211
182	0x3d84b28d	0.06479368
183	0xbd625fcf	-0.05526715
184	0xbea2234c	-0.31667554
185	0x3c7e47f4	0.015520085
186	0xbd8add46	-0.06780486
187	0xbea0fb15	-0.3144156
188	0xbdeeaf71	-0.116545565
189	0xbe07879a	-0.13235322
190	0xbc6e86ba	-0.0145584885
191	0xbeab97ca	-0.33514243
192	0x41a5c794	20.72245
193	0x41a39e5c	20.452324
194	0x41a5b93e	20.71545
195	0x41a4547f	20.541258
196	0x41649976	14.287466
197	0xc104d457	-8.301841
198	0xc00a41e3	-2.1602714
199	0x4148d506	12.552008
200	0x41a35eeb	20.421347
201	0x4149b007	12.605475
202	0x40dc2460	6.8794403
203	0x41a41aaa	20.51302
204	0xbf874a22	-1.0569499
205	0x3ee4f6fd	0.44719687
206	0x410562ff	8.336669
207	0x4163cec4	14.23798
208	0x41a3b94c	20.465477
209	0x412e2f0f	10.886489
210	0x4141c042	12.109438
211	0x41a36893	20.426062
212	0x41a52714	20.644081
213	0xbfe7e8f4	-1.8117967
214	0x41a338ef	20.4028
215	0xbf82d6b0	-1.0221767
216	0x415b5984	13.709354
217	0x41a2f41c	20.369194
218	0xc0ee0ebd	-7.439299
219	0x41a386f7	20.4409
220	0x41a3c99f	20.473448
221	0xbfb20fcb	-1.391107
222	0x41a578d8	20.684006
223	0xbd1407d3	-0.036140274
224	0x41554c64	13.33115
225	0x41549d47	13.288398
226	0x415a7d8b	13.65565
227	0x41548368	13.282082
228	0x418b75f6	17.432598
229	0xc2136f7e	-36.85888
230	0x41781052	15.503984
231	0x415a81df	13.656707
232	0x4159712b	13.590129
233	0x41903541	18.026003
234	0x417c82c6	15.781927
235	0x4155f8ca	13.3732395
236	0x41781278	15.504509
237	0x40a912a1	5.283524
238	0x41ade0d4	21.73478
239	0x418c4d1e	17.537655
240	0x4156a6b5	13.4157
241	0x41bb615f	23.422544
242	0x41a93ff5	21.156229
243	0x41570276	13.438101
244	0x4150f341	13.059388
245	0x40af512b	5.478658
246	0x41554369	13.328958
247	0x41ad552a	21.666584
248	0x41bb2186	23.391369
249	0x415904cd	13.563672
250	0xc21238e6	-36.555565
251	0x4152d661	13.177339
252	0x415726fc	13.447018
253	0x4181985c	16.199394
254	0x41559a49	13.350167
255	0x417ec85e	15.923918

weight f4 [1, 32]
0	0xc156e787	-13.431525
1	0xc182b9be	-16.340694
2	0x3dc53ea3	0.09631088
3	0xbde8951a	-0.11356564
4	0xc1040c0f	-8.252944
5	0x3cae300a	0.021263141
6	0xc159f5af	-13.622481
7	0xc11afb05	-9.686284
8	0xc079c739	-3.9027846
9	0x4063b5f1	3.5579798
10	0xbd8cfd9f	-0.06884312
11	0xbd6270a4	-0.055283204
12	0xc10753ee	-8.457991
13	0xc0a197dc	-5.0497875
14	0xbe10d9d3	-0.14145593
15	0xc14e5e5c	-12.898037
16	0x3d23b50a	0.039967574
17	0x3b1d1e72	0.0023974446
18	0xbe01ca2d	-0.1267478
19	0xc03f0033	-2.9843872
20	0x3e1af923	0.151341
21	0x41968028	18.812576
22	0xc10ef0ba	-8.933771
23	0xbdf36c09	-0.118858404
24	0xbd91e1b4	-0.071231276
25	0xbd8fb6d4	-0.070172936
26	0xc047837a	-3.1173997
27	0x4172da61	15.178315
28	0x3fdd870e	1.730684
29	0xc0a53a1a	-5.1633425
30	0x3e03227c	0.12806123
31	0xc1525dc2	-13.14789

weight f4 [1, 32]
0	0xc0adde32	-5.4333735
1	0xc0c14f04	-6.0408955
2	0xbd275bad	-0.040858913
3	0x3e25734d	0.16157265
4	0xc0ac5ba7	-5.386188
5	0x3e1c4192	0.15259388
6	0xc0e4ee3f	-7.154083
7	0xc0957810	-4.670906
8	0xc08c503a	-4.3847933
9	0xc0de029e	-6.9378195
10	0xbd4e8bef	-0.05042642
11	0xbd98401b	-0.07434102
12	0xc0dea216	-6.957286
13	0xbfcf2fd0	-1.6186466
14	0xbc2214a7	-0.009892619
15	0xc0b85462	-5.7603006
16	0xbc56568f	-0.013082161
17	0xbd65a2a6	-0.056063317
18	0x3ddb1b32	0.106985465
19	0xc103b280	-8.231079
20	0x3dda8d1f	0.10671448
21	0x4111939b	9.0985365
22	0xc0941da1	-4.628617
23	0xbcfaab02	-0.030599121
24	0x3d718ca9	0.058972035
25	0xbe18892a	-0.14896074
26	0xc09737d0	-4.725563
27	0x3daff7a3	0.08592155
28	0xc0da4328	-6.820698
29	0xc093e074	-4.621149
30	0x3e1ca450	0.15297055
31	0xc0e8af45	-7.271395
