data/test1/model_value1_delay.pt (torch, 18628 bytes, 8 tensors)

weight f4 [32, 2]
000000 8f 3e 90 be 7d be 89 c0 b1 6b 75 41 61 32 77 c1
       -0.28172728 -4.304503 15.338792 -15.4498
000010 a8 c1 81 bf 63 c0 78 c0 f0 35 41 c1 89 0c 70 c1
       -1.0137224 -3.8867424 -12.075668 -15.00306
000020 d2 ff 71 41 f5 be 74 c1 25 21 78 41 fd 5f 6e c1
       15.124956 -15.29662 15.508092 -14.898435
000030 e1 a7 37 c1 17 44 52 c1 0b 8e 73 41 2c 37 74 c1
       -11.478486 -13.1416235 15.222178 -15.26347
000040 e4 8c 3e c1 48 8c 82 c1 a5 e4 4c c1 7c 0e 63 c1
       -11.909397 -16.318497 -12.805821 -14.191036
000050 f9 3f 3d c1 e7 ad 6d c1 a7 dc 75 41 aa 7e 73 c1
       -11.828118 -14.854957 15.36637 -15.218424
000060 c4 a1 c3 c0 b2 38 10 c1 26 3e 32 c1 13 6a 5d c1
       -6.113497 -9.013842 -11.140173 -13.838397
000070 01 45 79 41 80 92 66 c1 17 7b 79 41 8c ea 77 c1
       15.579347 -14.410767 15.592551 -15.494762
000080 a4 db 75 41 a4 d5 79 c1 66 ec 74 41 5e d5 71 c1
       15.366123 -15.614658 15.307714 -15.114592
000090 da 33 4c c1 25 8d 6b c1 a3 d6 77 41 99 38 7a c1
       -12.762659 -14.721959 15.489902 -15.638818
0000a0 48 df 6d 41 16 c2 76 c1 9a 97 7c 41 af 5c 7b c1
       14.867012 -15.422384 15.787012 -15.710128
0000b0 d5 09 72 41 b7 46 78 c1 8b 54 3a c1 c8 50 55 c1
       15.1274 -15.517264 -11.64564 -13.332222
0000c0 f7 ec c6 c0 8f c8 0c c1 72 f1 4e c1 1d 10 5d c1
       -6.2164264 -8.7989645 -12.933947 -13.816434
0000d0 b0 6e 7b 41 fb c8 75 c1 fc 25 80 41 2d 2d 6d c1
       15.714523 -15.3615675 16.018547 -14.823529
0000e0 f6 c7 37 c1 8d f6 56 c1 47 06 40 c1 72 d7 64 c1
       -11.486319 -13.435193 -12.001533 -14.302599
0000f0 a6 00 b9 bf e1 5a b8 c0 7d ef 76 41 c2 54 77 c1
       -1.4453323 -5.7610936 15.433469 -15.458193

bias f4 [32]
000000 a8 69 17 41 47 9a 24 41 ae 61 8b 41 63 db 5e 41
       9.463295 10.287665 17.422695 13.928561
000010 01 42 24 41 f4 5d 1d 41 ca da 7f 41 6d 1e 27 41
       10.266114 9.835438 15.990915 10.444928
000020 46 ed 2c c0 51 d8 6c 41 22 84 65 41 9b cf 22 41
       -2.701982 14.802812 14.344759 10.175685
000030 65 77 67 41 95 ee 66 41 da b2 1a 41 13 2f 28 41
       14.466649 14.433248 9.668665 10.511493
000040 eb f4 21 41 0a 9f 12 41 95 af 65 41 3c ba 27 41
       10.122294 9.163828 14.355367 10.482967
000050 b8 54 1f 41 09 2d 26 41 c9 cc 1e 41 36 05 6b 41
       9.958183 10.385995 9.924996 14.688772
000060 3e 59 62 41 0a 52 6c 41 b0 cf 26 41 ba a9 16 41
       14.146788 14.770029 10.425705 9.416437
000070 9d 81 63 41 cc 69 6a 41 e4 06 68 40 21 1d 22 41
       14.219144 14.650829 3.6254206 10.132112

weight f4 [32, 2]
000000 ad 56 b9 c0 98 16 2c c0 3f 7c 3a 41 62 77 33 c1
       -5.7918305 -2.688879 11.6553335 -11.216646
000010 8d b0 ac c0 12 c9 46 c0 24 87 8a c1 b5 46 6a c1
       -5.3965516 -3.1060224 -17.315987 -14.642262
000020 7c 98 43 41 92 c3 34 c1 db 49 38 41 9f 98 2a c1
       12.224728 -11.297747 11.518031 -10.662261
000030 57 a7 3a c1 50 bf 1f c1 b1 13 30 41 62 97 2e c1
       -11.665854 -9.984207 11.004807 -10.911959
000040 c1 30 77 3f 70 5a 1a 40 9d dd 89 c1 f6 3e 68 c1
       0.9655877 2.4117699 -17.23321 -14.515371
000050 fc 54 80 c1 6d bc 59 c1 06 04 34 41 e2 b7 36 c1
       -16.041496 -13.608502 11.250982 -11.419893
000060 14 bf 7a c1 78 74 51 c1 17 41 85 c1 8c dc 60 c1
       -15.67165 -13.090935 -16.656782 -14.053844
000070 08 f7 37 41 22 31 2d c1 09 91 32 41 8e d0 33 c1
       11.49781 -10.824495 11.160409 -11.238417
000080 75 06 3b 41 b0 d0 39 c1 4f 80 36 41 b8 10 28 c1
       11.689076 -11.613449 11.406325 -10.504082
000090 d2 3f 78 c1 e0 6e 52 c1 48 bb 36 41 54 2f 2a c1
       -15.515581 -13.152069 11.420723 -10.636555
0000a0 be 16 3d 41 9f 5a 38 c1 b6 56 3d 41 c0 d8 30 c1
       11.818052 -11.522124 11.83367 -11.0529175
0000b0 46 07 40 41 cf d5 38 c1 d1 35 85 c1 05 3f 60 c1
       12.001776 -11.552199 -16.651278 -14.015386
0000c0 30 03 7e c1 b5 d4 53 c1 b4 9c 87 c1 02 eb 63 c1
       -15.875778 -13.23943 -16.951515 -14.244875
0000d0 bc d4 34 41 8e 9c 2f c1 23 ba 36 41 19 1b 2a c1
       11.301937 -10.975721 11.420444 -10.631616
0000e0 ee 45 86 c1 a9 1e 62 c1 5d ce 77 c1 76 23 52 c1
       -16.784145 -14.132485 -15.487882 -13.133657
0000f0 9e c6 3a c0 6d 1b 96 40 d3 d4 31 41 d0 e1 36 c1
       -2.9183726 4.690848 11.114459 -11.43013

weight f4 [32, 32]
000000 33 75 c9 40 47 eb 61 3d 89 a3 dd 40 6c 8d 72 41
       6.2955565 0.05515602 6.926213 15.159527
000010 4d ac e7 bd 44 0a a9 3c b4 06 7c 41 5b 0c b9 bd
       -0.11312161 0.020634778 15.7516365 -0.0903556
000020 14 65 c5 c0 45 dc 81 41 cb 42 84 41 44 d7 ae be
       -6.1685886 16.232553 16.532614 -0.3414861
000030 0e 68 8e 41 ce ee 82 41 2c 92 aa bd 84 36 1e be
       17.800808 16.366604 -0.08328661 -0.15450484
000040 21 7b 14 bd 97 77 a8 3d 1f 75 8a 41 55 90 97 bd
       -0.036250237 0.08225935 17.307188 -0.07400576
000050 15 0a 13 bd 57 de d5 3d bb 05 ad bc 01 69 85 41
       -0.035898287 0.104427986 -0.021120897 16.676271
000060 b8 7c 8b 41 b7 e1 85 41 48 51 9c 3d 37 9d 2c bd
       17.435898 16.735212 0.07632691 -0.04214212
000070 b5 5b 80 41 ca d1 8c 41 c8 42 9e c1 83 20 8a ba
       16.044779 17.602436 -19.782608 -0.0010538254
000080 ad 94 14 41 21 e3 ce 40 3a 72 00 41 88 a5 79 41
       9.286298 6.4652257 8.027887 15.602913
000090 f2 f4 d3 40 36 cf c9 40 aa 32 fa 40 a8 d0 d0 40
       6.6236506 6.3065443 7.8186846 6.5254707
0000a0 d3 e3 a5 40 78 b5 70 41 86 58 6e 41 df 84 ab 40
       5.1840606 15.044304 14.896612 5.3599696
0000b0 d6 2c 5d 41 2f 63 73 41 5f b7 c4 40 25 0c d0 40
       13.823446 15.211715 6.147384 6.5014825
0000c0 b8 8c bd 40 38 a1 cd 40 c3 8b 6b 41 1b 1c d7 40
       5.9234276 6.42593 14.7216215 6.722181
0000d0 de fe bc 40 1b 81 db 40 34 54 bf 40 a1 de 6a 41
       5.9061117 6.85951 5.9790287 14.679353
0000e0 1c 97 61 41 60 d2 6f 41 fd 59 cf 40 c5 19 ce 40
       14.099392 14.988861 6.479735 6.4406457
0000f0 a8 ae 6d 41 69 84 67 41 1d 34 0c c1 d2 dd c8 40
       14.855141 14.469827 -8.762723 6.2770777
000100 40 9c ed 40 79 d8 43 41 0c 9f eb 40 6e 31 e2 40
       7.4253235 12.24035 7.363165 7.068534
000110 2d 06 40 41 99 1e 4a 41 0e 09 86 41 a5 a6 47 41
       12.001508 12.63247 16.754421 12.478185
000120 6e 43 60 3f b5 11 e2 40 61 49 d8 40 55 bd 4a 41
       0.8760289 7.0646615 6.7589574 12.671224
000130 47 1e d1 40 2e 43 d8 40 89 b2 44 41 88 7d 47 41
       6.534946 6.7582006 12.293588 12.468147
000140 e0 14 48 41 8d 90 49 41 ff 7e d3 40 85 85 45 41
       12.505096 12.597791 6.6092525 12.345098
000150 0a 0b 44 41 9b 64 43 41 50 15 3d 41 af 77 dd 40
       12.252695 12.212062 11.817703 6.92086
000160 5f 7a d0 40 02 e7 de 40 d7 3a 4a 41 0f bc 4b 41
       6.514938 6.965699 12.639365 12.733413
000170 b7 d3 e3 40 5c ec cf 40 53 e6 24 c1 69 ab 4a 41
       7.119594 6.4976025 -10.3062315 12.666848
000180 51 3c 08 41 28 27 e0 40 63 00 0f 41 c7 f2 7b 41
       8.514726 7.00478 8.937594 15.746772
000190 d8 b6 d8 40 3d a3 dc 40 ba 4a f0 40 41 4a dd 40
       6.77232 6.8949265 7.509122 6.915314
0001a0 6f 81 a5 40 65 eb 6d 41 d8 c1 6b 41 18 36 dd 40
       5.17205 14.869969 14.734825 6.9128532
0001b0 9c c2 5c 41 35 d4 70 41 a7 45 da 40 64 50 da 40
       13.797512 15.051808 6.8210025 6.8223133
0001c0 0d 4a df 40 76 7e e2 40 30 5b 64 41 bb 99 d7 40
       6.9777894 7.077937 14.272263 6.737516
0001d0 83 2c e0 40 b5 d1 db 40 bc f6 e0 40 04 c8 6b 41
       7.0054336 6.869349 7.030119 14.736332
0001e0 cb 37 61 41 b6 b9 6e 41 56 08 dc 40 78 84 d8 40
       14.076121 14.92034 6.8760176 6.7661705
0001f0 22 cb 6f 41 27 14 60 41 93 bb 00 c1 ec 39 e2 40
       14.987093 14.00492 -8.0457945 7.0695705
000200 09 1c 01 41 db f5 17 41 c7 23 e1 40 31 f7 1c 41
       8.0693445 9.497523 7.0356174 9.810349
000210 bb fe 18 41 8e 73 1b 41 2f 57 5c 41 1d 1c 17 41
       9.56219 9.715712 13.771285 9.444364
000220 78 c9 c4 bf 1d 04 1b 41 c7 03 1c 41 45 42 1a 41
       -1.5373983 9.688504 9.750922 9.641179
000230 4d 6b 1a 41 51 fc 1b 41 5e f4 16 41 39 f2 18 41
       9.6511965 9.749101 9.43466 9.559136
000240 8e 4d 16 41 22 fe 1c 41 89 a4 19 41 3d 3e 17 41
       9.393934 9.812044 9.60267 9.452695
000250 1d 7f 17 41 c1 bc 19 41 86 04 1c 41 6d 02 1c 41
       9.4685335 9.6085825 9.751104 9.750592
000260 56 13 19 41 63 71 18 41 af 5c 18 41 c3 25 18 41
       9.567221 9.527682 9.522628 9.509219
000270 12 3c 1c 41 bf 7b 17 41 3c a5 2a c1 2d bf 1a 41
       9.764666 9.467711 -10.66534 9.671674
000280 8c 49 5b 41 90 8f 15 bd aa b9 95 41 a6 41 8f 41
       13.705456 -0.036513865 18.715656 17.907055
000290 10 a8 90 3b 66 f7 d0 bd d1 c7 a5 41 74 5a 5c be
       0.004414566 -0.102034375 20.722567 -0.2151888
0002a0 ee 88 03 3f ae 1a 8f 41 a9 1c 8e 41 8f 40 14 3d
       0.51380813 17.888027 17.763994 0.03619438
0002b0 b2 d4 8e 41 30 ee 8e 41 94 af e3 bd 4d 17 25 be
       17.853855 17.866302 -0.11117473 -0.1612217
0002c0 e1 33 2a be 70 45 5e 3d 28 ba 8e 41 d1 59 92 be
       -0.16621353 0.05426544 17.840897 -0.2858415
0002d0 85 4d 8d be bc 17 9e bd 40 9b 29 be 3d db 8d 41
       -0.27598205 -0.07719371 -0.1656313 17.73205
0002e0 1d 56 8d 41 69 2f 8e 41 4e 3c e6 bd 21 d7 d4 3d
       17.667048 17.77315 -0.11241971 0.10392595
0002f0 c7 4c 8d 41 1f 91 8e 41 37 1e c7 c0 1e 22 f8 bd
       17.662489 17.82086 -6.2224383 -0.12115882
000300 fd ab d5 bd 50 63 cd bd 8d b3 c9 bd b6 89 b3 3d
       -0.10433195 -0.10028708 -0.098487 0.08766501
000310 2a 58 76 be f6 4a 85 be 7b 52 33 3e cf 9e 09 be
       -0.2405707 -0.26033753 0.17511933 -0.13439487
000320 25 52 b3 bd ff 84 53 bd f9 1b a8 bd 95 00 9a be
       -0.08755902 -0.051640507 -0.0820846 -0.3007857
000330 ae 44 3b be af c3 2a be 29 99 0b be bc 9f 46 3d
       -0.18287918 -0.1667621 -0.13632645 0.04849218
000340 89 31 4c bd 46 59 4b be 00 70 1e be 80 87 6c 3d
       -0.049851928 -0.19858274 -0.15472412 0.05774641
000350 d0 84 9a be 74 a3 68 be 7a 2b 2d bd 48 3e ea bc
       -0.30179453 -0.22718602 -0.04227779 -0.028594151
000360 05 07 c0 bd d8 40 c7 3d 19 f5 18 be 05 10 14 3d
       -0.09376339 0.09729165 -0.14937247 0.03614809
000370 77 33 35 3e 03 0d 92 bd c7 65 4e be 04 a5 06 be
       0.17695414 -0.07131388 -0.20156012 -0.13148886
000380 e6 ac 47 be b8 ba 52 be 8c a3 0a be 7b 47 c7 bc
       -0.1949955 -0.2057904 -0.1353895 -0.024326077
000390 84 52 cd bd f9 74 70 bd c7 a1 c1 bd db 11 63 be
       -0.10025504 -0.058705304 -0.09454685 -0.2217478
0003a0 4d 93 f3 be 0c e7 7f bc 83 c7 ef bd 5d 4d 96 bd
       -0.4757332 -0.015619051 -0.11707976 -0.073389746
0003b0 32 4c 8d bd 58 af 4f be 64 ff 08 bd 98 35 aa be
       -0.06899299 -0.20281732 -0.033446684 -0.33244014
0003c0 1d 14 4a bc d8 96 99 3c c0 9c 4a bd 48 17 cb be
       -0.012333897 0.018748686 -0.049465895 -0.396662
0003d0 51 fc ea bd 95 16 05 bc bd 49 b9 be 3c c0 a1 be
       -0.11473907 -0.00812306 -0.3618907 -0.31591976
0003e0 6d 73 23 be 2b 2c a0 be a0 ee 30 bd 11 d2 22 3e
       -0.15962 -0.31283697 -0.04319632 0.15900446
0003f0 3d 17 76 be e0 83 15 be 90 34 9b bc e9 d1 b5 be
       -0.24032302 -0.14601088 -0.018945962 -0.3551171

bias f4 [32]
000000 90 04 cf 40 4a 8c 4f be af 38 e3 3d aa bf e7 be
       6.469307 -0.2026836 0.11094796 -0.45263416
000010 18 bd c0 40 05 33 2a c1 82 0a 19 bc be ef c8 be
       6.0230827 -10.637456 -0.009340884 -0.3924541
000020 07 91 0a c1 50 51 80 be ad 9d bb bd 10 a8 96 bf
       -8.660407 -0.25062037 -0.09160934 -1.1770039
000030 3f 6b 36 be 13 84 84 3e 40 28 fe bd 46 9c b1 be
       -0.17814349 0.25882015 -0.12410021 -0.3468954
000040 3d 54 d1 40 9b 5b 12 bf 8d ba 33 40 23 02 68 40
       6.541533 -0.5717103 2.8082612 3.6251304
000050 99 08 42 3f 50 8c 80 be c0 fa 65 3f 5c 7e 9f bd
       0.7579437 -0.2510705 0.8983574 -0.07787773
000060 04 3a 27 c0 a4 e2 77 be 02 76 b8 be 98 9e b7 c0
       -2.612916 -0.2420755 -0.36027533 -5.7381096
000070 92 e5 73 41 df 7f 70 bf 81 ee a3 c0 ce 32 b1 be
       15.243547 -0.93945116 -5.1228642 -0.34609073

weight f4 [32, 32]
000000 35 f6 5e c1 b2 2c 58 3c 9c 17 d3 c1 53 dc 5a 40
       -13.935109 0.01319425 -26.386528 3.4196975
000010 03 77 91 be 8f ea 29 be 3e 7d 61 c0 a8 6d 42 3b
       -0.2841111 -0.16593383 -3.5232692 0.002966741
000020 0a c1 ae 41 75 ab 72 40 d2 46 cc 40 4a d8 13 be
       21.844257 3.791715 6.383645 -0.14437976
000030 a7 16 d9 c0 84 f3 30 3e 16 90 0e be 7d 19 9f 3d
       -6.784015 0.17280394 -0.13922152 0.077685334
000040 10 ed ae 3c 5b 0d c8 3d 81 0d 13 41 b8 5e a2 be
       0.021353275 0.09768172 9.190797 -0.3171289
000050 09 82 32 be fa 99 ac be 47 e0 3f be c8 54 c2 3f
       -0.17432417 -0.33711225 -0.18737899 1.5182123
000060 bf 44 dd c0 86 7e 7c 40 be cf 19 be 0a 01 68 be
       -6.914642 3.9452224 -0.15020654 -0.22656646
000070 f0 c1 6d 3f 81 15 e0 40 34 a7 aa 41 7d 1d a5 3c
       0.9287405 7.002625 21.331642 0.020155663
000080 d4 c0 68 41 ce 7a 7a 40 ac f2 20 41 40 b9 72 41
       14.547077 3.9137454 10.059246 15.170227
000090 f1 47 79 40 9e de 81 40 ac 1f 47 41 43 b7 83 40
       3.895016 4.058425 12.445232 4.116121
0000a0 f9 9d 61 41 c6 80 72 41 e5 9a 75 41 0f fd 81 40
       14.101068 15.156439 15.350316 4.062141
0000b0 0d 2e 7d 41 ae 39 72 41 a6 94 8a 40 07 5a 7e 40
       15.823743 15.139082 4.3306456 3.9742448
0000c0 04 4e 45 40 fd 44 84 40 f9 79 77 41 f6 6b 86 40
       3.0828867 4.1334214 15.4672785 4.200679
0000d0 41 a5 7b 40 96 39 83 40 09 d8 79 40 a1 af 6d 41
       3.9319613 4.1007795 3.9038107 14.855378
0000e0 40 7d 7a 41 03 a2 74 41 7f 56 84 40 05 51 89 40
       15.655579 15.289554 4.1355586 4.29114
0000f0 db 88 6f 41 95 1e 78 41 0e 7b 8d 40 24 37 85 40
       14.970912 15.507466 4.4212713 4.162981
000100 a3 08 ec bf 13 bc 26 41 35 5b a1 40 88 8d 8e 40
       -1.8440136 10.420917 5.0423837 4.454777
000110 fa 8d 22 41 5d 7b 27 41 c6 27 65 41 85 33 28 41
       10.159662 10.467618 14.32221 10.512578
000120 d6 58 d7 40 71 dd 93 40 38 e0 86 40 a4 7a 28 41
       6.729594 4.6207814 4.2148705 10.529942
000130 60 93 9a 40 f3 dd ad 40 5d 51 27 41 73 68 25 41
       4.83049 5.4333434 10.457364 10.338
000140 d2 aa 29 41 1f 89 2a 41 01 0c 9f 40 4e 0f 29 41
       10.604204 10.658477 4.9702153 10.5662365
000150 d7 45 27 41 49 ca 25 41 73 4c 24 41 58 e5 8b 40
       10.454551 10.361886 10.268664 4.371746
000160 59 0e a0 40 33 39 87 40 01 1f 27 41 33 ac 26 41
       5.0017514 4.2257323 10.445069 10.417041
000170 13 4d 8e 40 e0 5e 97 40 e8 7f fc c0 ce 76 25 41
       4.4469085 4.7303314 -7.8906136 10.341505
000180 e0 2e 69 41 bc 9a 92 40 1e d0 24 41 a0 5e 76 41
       14.573944 4.5813885 10.30081 15.398102
000190 8a c2 90 40 96 9c 94 40 f7 13 3f 41 ce 49 91 40
       4.5237474 4.6441145 11.942374 4.5402594
0001a0 59 a9 57 41 2d d1 73 41 7d 64 79 41 31 64 98 40
       13.478845 15.238568 15.587033 4.7622304
0001b0 e4 06 78 41 bb 13 79 41 bb 03 94 40 64 09 8f 40
       15.501682 15.567317 4.6254554 4.4698963
0001c0 c7 eb 96 40 cc 40 90 40 a9 ac 77 41 a0 6c 91 40
       4.7162814 4.50791 15.479653 4.54451
0001d0 ae ae 93 40 51 03 94 40 2e a5 99 40 7d e0 75 41
       4.615073 4.625405 4.8014135 15.367307
0001e0 64 fe 7b 41 bf 60 73 41 8e 10 93 40 96 67 92 40
       15.749607 15.21112 4.595771 4.575145
0001f0 6d f6 74 41 b8 24 78 41 a4 23 58 40 e1 ec 90 40
       15.310163 15.508965 3.3771753 4.528916
000200 ed ce 4a 41 82 2b ed 40 41 ff 17 40 f7 9d 0e 41
       12.675519 7.411561 2.3749545 8.913566
000210 48 ec ee 40 b2 9d ec 40 28 1b 45 41 a6 4d ec 40
       7.466343 7.39425 12.31913 7.3844786
000220 8c e3 38 41 d0 1c 0a 41 87 55 0c 41 1a fe ee 40
       11.555553 8.632034 8.770881 7.4685183
000230 7f 56 03 41 77 33 0d 41 be a2 f0 40 90 81 ef 40
       8.208617 8.825065 7.519866 7.4845657
000240 7c f6 ef 40 33 6f f1 40 0c 91 0b 41 80 79 ef 40
       7.4988384 7.544824 8.722912 7.4835815
000250 3d 1d e9 40 a5 c9 ed 40 8a 71 ec 40 44 d9 07 41
       7.284819 7.430865 7.3888597 8.490543
000260 4a 2a 03 41 5a 18 0a 41 d9 f0 ee 40 92 68 f1 40
       8.1978245 8.630945 7.4669003 7.544015
000270 22 03 0b 41 f2 54 0c 41 0e ab e8 40 67 c9 e8 40
       8.688265 8.770739 7.2708807 7.2745852
000280 b5 15 b1 41 ba fc 1b 40 bf a1 d8 41 7a 50 97 41
       22.1356 2.4373002 27.078978 18.914295
000290 bd 61 17 40 96 be 27 40 b1 c5 84 41 b2 0f 14 40
       2.3653405 2.6210074 16.596529 2.313458
0002a0 6b 83 0c c0 ed d7 96 41 97 8b 95 41 c9 2b 15 40
       -2.195521 18.855433 18.69316 2.3307974
0002b0 cd 67 98 41 e9 64 97 41 0f d7 18 40 d7 42 17 40
       19.050684 18.924273 2.3881261 2.3634546
0002c0 31 19 20 40 77 ac 6d 40 58 ff 95 41 90 11 0d 40
       2.5015376 3.7136514 18.74968 2.204197
0002d0 81 c5 0e 40 20 44 12 40 be 24 1b 40 c0 1f 94 41
       2.2308047 2.285408 2.4241176 18.515503
0002e0 14 f3 96 41 b9 34 97 41 05 52 0d 40 e5 c1 1c 40
       18.86869 18.900743 2.208131 2.4493344
0002f0 d6 f6 93 41 33 28 96 41 04 01 10 c1 50 62 1d 40
       18.495525 18.769629 -9.000248 2.4591255
000300 c9 a1 ec 3d 59 b7 9d bc 0c f2 33 be 74 88 a3 3c
       0.115542956 -0.019252466 -0.17572802 0.019962527
000310 76 5b 0e bd 9b 81 a9 bd 78 3f bb bc cf 4b 6b be
       -0.034755193 -0.082766734 -0.022857413 -0.22978137
000320 42 17 07 be 0f 0f 53 bd 25 28 b3 bd 98 c1 d1 3d
       -0.13192466 -0.051528033 -0.08747891 0.10242003
000330 6c e0 4e be 93 1d 2d be 4e e4 30 be 36 52 30 be
       -0.20202798 -0.16905813 -0.17274591 -0.17218861
000340 fe 33 11 be 5c 04 d5 3d 91 39 2b be c7 e6 90 be
       -0.1417999 0.10401222 -0.16721179 -0.2830107
000350 f0 84 2f 3e 66 75 e0 bc 07 50 85 bc 8e 2b d3 3b
       0.17140555 -0.02739973 -0.016273512 0.006444401
000360 53 81 61 be a7 64 68 3d 85 d1 24 be 5d cd 72 be
       -0.2202199 0.056736615 -0.1609555 -0.23711152
000370 6b 5d 1f be 0c 7c 84 be 3e 00 62 be a5 18 aa be
       -0.1556298 -0.2587589 -0.22070405 -0.33221927
000380 dd 22 38 be 08 6f 80 be 70 74 ba be 54 67 ee be
       -0.1798205 -0.2508471 -0.3641696 -0.46563208
000390 0a b9 2a be 4f 48 98 be 77 74 06 be 53 49 cb be
       -0.1667215 -0.29742667 -0.13130365 -0.3970438
0003a0 45 09 ea bd 58 e5 26 bc da d9 8c bc 08 77 bf bd
       -0.11427549 -0.010186516 -0.017193723 -0.09348875
0003b0 85 d6 a1 bc 28 d0 64 3d 1f 45 a3 bd 0a af c4 be
       -0.019755611 0.055862576 -0.07972168 -0.38414794
0003c0 0d 6d 57 bd cf 03 7f be 15 d3 d3 bc 57 30 16 3c
       -0.052594233 -0.24903797 -0.025857488 0.009166799
0003d0 bc 76 27 be 85 72 28 be 51 66 a4 be f2 73 ac 3c
       -0.16353887 -0.16449936 -0.3210931 0.02105138
0003e0 58 db 27 bd 32 3e 1a be 2e e7 8f be 00 28 ba bb
       -0.040980667 -0.15062788 -0.28106064 -0.005681038
0003f0 18 72 9f be 33 23 3f 3d ed 81 99 be ff 69 be be
       -0.31141734 0.046664428 -0.29981938 -0.37190244

weight f4 [1, 32]
000000 60 21 eb bd b8 93 9e c0 77 d0 c2 c0 5f 4a 83 c0
       -0.11480975 -4.955532 -6.0879474 -4.1028285
000010 9c 20 b7 c1 b7 52 f7 41 1b b8 22 be a2 60 0d be
       -22.890923 30.915388 -0.15890543 -0.13806394
000020 19 84 08 41 ed 2e 17 bd f7 b7 9d c0 25 de e4 c0
       8.53225 -0.036909986 -4.9287066 -7.1521173
000030 94 cb 94 c0 7b 44 c8 c0 33 e5 a7 c0 9f 15 d7 3d
       -4.649851 -6.2583594 -5.2467284 0.10502171
000040 3e 20 74 c1 9f 0f 91 c0 32 2f 05 c1 70 6d 8d c0
       -15.257872 -4.533157 -8.324022 -4.419609
000050 50 bd c7 c0 74 37 98 c0 f5 18 ed c0 08 27 a2 c0
       -6.2418594 -4.756769 -7.4092965 -5.0672646
000060 dc 49 19 be 24 30 ba bd 64 cb 01 3d 4b 88 3d 41
       -0.14969581 -0.09091213 0.03168811 11.845775
000070 29 f2 ba 40 61 be ff c0 f3 66 da 41 51 2e a2 bc
       5.8420606 -7.9919896 27.300268 -0.019797476

weight f4 [1, 32]
000000 7d df 76 3d 44 70 c8 c0 ff 2e 89 c0 0d 36 a4 c0
       0.06027173 -6.2637043 -4.286987 -5.131598
000010 2c 4c ee c0 cd a0 55 40 f0 a1 e4 bd 24 7f 04 3e
       -7.4467983 3.3379395 -0.111636996 0.12939125
000020 1f af 61 c1 f3 29 16 3e 64 3f c2 c0 e8 48 b5 c0
       -14.105254 0.1466444 -6.070238 -5.6651497
000030 e7 e6 b5 c0 ec 9d 88 c0 5b 90 cb c0 12 1a da 3c
       -5.6844363 -4.2692776 -6.3613715 0.02662376
000040 1f 90 26 c1 a5 34 a7 c0 02 da 02 c1 86 8a c3 c0
       -10.410186 -5.2251763 -8.178225 -6.1106596
000050 90 26 93 c0 5a 24 c6 c0 56 b6 f0 c0 5a 9c c6 c0
       -4.5984573 -6.1919374 -7.522258 -6.206586
000060 87 f0 da bd 88 bb 9b bd f7 19 f5 bd 14 fb 3e c1
       -0.10690408 -0.07604128 -0.11967843 -11.936298
000070 49 0e cc 41 df 2a d5 c0 c3 16 ad 40 13 56 23 be
       25.506975 -6.6614833 5.4090285 -0.15950803
