data/test1/model_value2.pt (torch, 18562 bytes, 8 tensors)

weight f4 [32, 2]
000000 59 d0 83 41 cd 6f 84 c1 fe 35 89 41 4b 80 86 c1
       16.476732 -16.55459 17.151363 -16.812643
000010 66 7f 87 c1 15 b1 98 c1 41 ad 81 41 14 3c 85 c1
       -16.937206 -19.086466 16.209597 -16.654335
000020 5c ca 77 c1 a7 bd 94 c1 50 0b 3a c1 f1 60 55 c1
       -15.486904 -18.592604 -11.627762 -13.336167
000030 dc 5a 50 c0 05 75 4f c1 9b 6c 75 c1 6f 8c 8e c1
       -3.2555456 -12.966069 -15.339015 -17.818571
000040 aa f2 89 41 91 41 88 c1 1d 12 7f 41 73 3a 84 c1
       17.243488 -17.032015 15.941922 -16.52854
000050 ab bf 85 41 cc 56 86 c1 83 7b 28 c1 00 33 47 c1
       16.718588 -16.792381 -10.530154 -12.449951
000060 e6 98 86 41 5c de 84 c1 f2 90 83 41 18 02 86 c1
       16.824657 -16.608574 16.445774 -16.751022
000070 34 43 88 41 bd 58 80 c1 a8 57 7e c1 e2 bc 94 c1
       17.032814 -16.04333 -15.8964 -18.592228
000080 67 e1 88 41 eb 2c 86 c1 f7 67 80 41 66 92 83 c1
       17.11006 -16.771933 16.050764 -16.446484
000090 e5 e1 90 c0 15 c4 b2 3f 75 4d 81 c1 c6 f7 8e c1
       -4.527575 1.396609 -16.16282 -17.870983
0000a0 fd 7e 83 3e cf 2d 20 c1 03 49 8c 41 a0 c8 8a c1
       0.25682822 -10.011184 17.53565 -17.347961
0000b0 e5 9f 89 41 cc 11 84 c1 53 a9 8e c1 c4 a2 8e c1
       17.203074 -16.50869 -17.832678 -17.829475
0000c0 ea f2 90 c1 e9 df 94 c1 ea 98 2d c1 bd cf 59 c1
       -18.11861 -18.609331 -10.849833 -13.613217
0000d0 c6 18 80 41 a6 d9 86 c1 dc 92 87 c1 ea 85 92 c1
       16.012096 -16.856274 -16.946709 -18.315388
0000e0 e8 63 80 41 b6 30 84 c1 b5 21 84 41 0a ae 88 c1
       16.048782 -16.523785 16.516459 -17.08498
0000f0 89 72 80 c1 90 c3 96 c1 47 07 8b 41 3b 2e 82 c1
       -16.055925 -18.84549 17.378553 -16.272573

bias f4 [32]
000000 12 f4 42 41 42 08 3c 41 94 66 8c 41 71 11 2f 41
       12.1845875 11.752016 17.550087 10.941758
000010 ba 98 8c 41 de 86 89 41 da 31 3d 41 ee 4b 8e 41
       17.574574 17.190853 11.824671 17.787075
000020 d0 37 3d 41 e9 87 34 41 82 6d 3d 41 dc 9b 92 41
       11.826126 11.283181 11.839235 18.326103
000030 78 10 31 41 8e 7b 32 41 88 ee 2c 41 1d 96 8e 41
       11.066521 11.155165 10.808235 17.823298
000040 96 a0 2d 41 b5 cc 30 41 80 74 fb 40 78 ad 89 41
       10.851706 11.049977 7.857971 17.209702
000050 7f 35 3b 41 3f 20 2d 41 03 a7 34 41 a5 7e 12 41
       11.700561 10.820373 11.290774 9.155919
000060 06 cf 1a 41 96 83 95 41 70 da 2d 41 7c 9b 8f 41
       9.675543 18.68925 10.865829 17.95092
000070 1d 33 40 41 12 39 35 41 69 4f 8e 41 71 f0 31 41
       12.012479 11.326433 17.788774 11.1212015

weight f4 [32, 2]
000000 21 9d 48 41 d2 71 47 c1 d4 01 3e 41 56 90 3d c1
       12.538362 -12.465288 11.875446 -11.847738
000010 10 ad 94 c1 5b 40 7c c1 83 75 50 41 5e ff 49 c1
       -18.584503 -15.765712 13.028689 -12.6248455
000020 60 28 96 c1 54 26 7f c1 b4 36 29 c1 10 4d 11 c1
       -18.769714 -15.946857 -10.575855 -9.081314
000030 bb e8 c0 c0 1a 44 fe c0 43 d2 98 c1 73 ca 81 c1
       -6.0284095 -7.945813 -19.102667 -16.223852
000040 dd 42 44 41 62 28 42 c1 44 b4 40 41 79 df 41 c1
       12.266324 -12.134859 12.04401 -12.117059
000050 25 aa 45 41 51 4b 42 c1 0d 00 26 c1 2a cb 0d c1
       12.354039 -12.143388 -10.375012 -8.862101
000060 58 c6 3e 41 f8 ce 3e c1 f2 40 4d 41 3e 4e 4b c1
       11.923424 -11.9255295 12.828356 -12.706602
000070 17 3d 4b 41 e4 ca 3c c1 8c b3 a0 c1 34 5f 88 c1
       12.7024145 -11.799534 -20.08767 -17.046486
000080 1c 9b 45 41 de c6 3f c1 b8 8e 4d 41 87 54 4b c1
       12.3503685 -11.986052 12.847343 -12.708137
000090 5f c7 d4 c0 b0 ea 19 c1 12 c4 9d c1 32 be 85 c1
       -6.6493373 -9.619797 -19.720737 -16.717869
0000a0 7d f7 7b 40 36 61 ae bf 1b 01 36 41 1c 19 46 c1
       3.9369805 -1.3623416 11.37527 -12.38113
0000b0 8e e3 47 41 0e 0c 48 c1 44 5f 93 c0 00 f7 88 c0
       12.493055 -12.502943 -4.605379 -4.2801514
0000c0 dd 8d 90 c0 ca 48 8b c0 db c6 21 c1 3a 6a 0b c1
       -4.5173173 -4.3526354 -10.111049 -8.713434
0000d0 ff 54 4f 41 0b 85 47 c1 4f 18 8a c1 45 aa 6a c1
       12.958251 -12.469981 -17.26187 -14.66657
0000e0 8d d0 3c 41 95 ee 41 c1 0b eb 48 41 bd a8 44 c1
       11.800916 -12.120748 12.557384 -12.291196
0000f0 51 6d 9d c1 8b 8a 85 c1 4d b6 3c 41 12 d9 49 c1
       -19.678377 -16.692648 11.794507 -12.615496

weight f4 [32, 32]
000000 9a 8d f6 40 d7 0a fa 40 81 06 67 41 66 17 f6 40
       7.7047853 7.813823 14.439088 7.6903563
000010 43 7d 6b 41 ba f5 26 c0 b9 18 34 41 e6 31 68 41
       14.718081 -2.608748 11.256036 14.512182
000020 38 64 f6 40 66 7a f6 40 c6 4c f8 40 ba 61 f0 3f
       7.6997337 7.702441 7.7593718 1.8779824
000030 6d e6 f2 40 8d 4b f5 40 16 f8 f8 40 94 f2 6d 41
       7.590628 7.6654725 7.780284 14.871723
000040 25 dc f3 40 4d 35 ef 40 d3 57 e4 40 d2 ac 72 41
       7.620623 7.4752564 7.1357207 15.167192
000050 32 7b 06 41 ca c7 f2 40 db 30 f8 40 f9 cf 5f 41
       8.405077 7.5868883 7.755964 13.988275
000060 20 2d 6e 41 b7 59 8a 3f 33 82 f4 40 a8 dd 4c 41
       14.886017 1.0808629 7.6408935 12.804115
000070 86 59 f0 40 0a 7c ef 40 f9 00 6e 41 8e 05 f9 40
       7.510928 7.4838915 14.875237 7.781928
000080 03 7e 12 3e 60 e2 44 be 6a d0 b6 be 4d 9a 1d 3e
       0.14305882 -0.1922698 -0.35705882 0.15390892
000090 95 5f c2 be 7d 3a 75 be 71 e5 c6 bd 1b 3f 66 be
       -0.37963548 -0.23948093 -0.09711731 -0.2248501
0000a0 8e f8 2e be 5a 42 13 be e7 62 1e be aa f6 4a be
       -0.17087004 -0.1438078 -0.15467416 -0.19820657
0000b0 43 08 03 be 9a cf 5c bc a1 45 14 be df 22 8f be
       -0.1279612 -0.01347723 -0.14479686 -0.27956292
0000c0 1d 46 05 3e 3c a8 90 3d 22 1f 2a be 6a d2 57 bd
       0.13015027 0.07063338 -0.16613439 -0.0526909
0000d0 35 07 f5 bd fd 68 4d bd d0 e5 aa 3c ea a0 9f bd
       -0.11964265 -0.050148953 0.020861536 -0.07794364
0000e0 5a d6 1b be 1e 53 e2 bd 36 e7 8f 3d b1 8f 3d be
       -0.15218487 -0.110510096 0.07026522 -0.18511845
0000f0 38 95 d7 3c d3 b3 1b be f0 e7 e7 bd cc 29 fe 3c
       0.02631627 -0.15205316 -0.113235354 0.03102579
000100 6f b2 53 41 02 41 57 41 6b 8d 52 40 f8 5c 51 41
       13.231063 13.453371 3.2898815 13.085197
000110 6d c1 6e 40 a7 3e 13 bf 10 14 9b 3e 72 97 72 40
       3.7305558 -0.57517475 0.30288744 3.7904935
000120 3a 20 59 41 8c bc 56 41 46 c1 59 41 ef 91 b0 40
       13.570368 13.421032 13.609686 5.517814
000130 28 d7 5c 41 78 15 56 41 d9 12 59 41 9c b9 90 40
       13.802528 13.380241 13.5671015 4.5226574
000140 63 2f 5b 41 ef b2 54 41 ef 70 89 c0 b2 ea 8e 40
       13.699069 13.293685 -4.295036 4.4661493
000150 fd d2 3e 41 60 f8 58 41 9e 83 57 41 28 ee 40 c1
       11.926511 13.560638 13.469633 -12.058144
000160 fb 87 bd c0 5a 19 81 40 d1 c3 52 41 0d 95 ac 3f
       -5.922849 4.0343447 13.172807 1.3482987
000170 a9 4d 58 41 3c 91 54 41 d3 da 82 40 69 72 57 41
       13.51896 13.285458 4.089212 13.465432
000180 ba f5 e6 40 dc 7b e4 40 1f 79 65 41 9b c0 eb 40
       7.217496 7.1401196 14.342071 7.3672614
000190 c2 d9 6a 41 d1 49 2a c0 0b 39 34 41 d8 f8 5f 41
       14.678164 -2.6607554 11.2639265 13.998253
0001a0 e9 c9 e9 40 1e 6b e6 40 f2 6a e9 40 34 3e b4 3f
       7.305897 7.200576 7.294305 1.4081483
0001b0 16 c8 e5 40 e9 92 e7 40 4f ac e8 40 ca 8c 6f 41
       7.1806746 7.2366834 7.271034 14.971872
0001c0 01 c5 e8 40 df 8e ed 40 b4 a3 db 40 ae 2a 73 41
       7.2740483 7.4236903 6.8637333 15.19792
0001d0 ca 64 ff 40 ed e7 e6 40 87 67 e6 40 95 db 5e 41
       7.9810534 7.2158113 7.2001376 13.928609
0001e0 cf c9 6f 41 4f fc 3d 3f dc 7f ee 40 eb b1 4b 41
       14.98677 0.7421312 7.453108 12.730937
0001f0 88 42 e5 40 a1 0a e6 40 d9 71 6f 41 8d f7 e5 40
       7.1643715 7.1887975 14.965295 7.1864686
000200 f4 2f e3 40 e7 bf df 40 36 dc 64 41 70 e7 df 40
       7.0996037 6.9921756 14.303762 6.9970016
000210 b9 ec 66 41 80 92 24 c0 25 53 38 41 df b6 60 41
       14.432794 -2.5714417 11.520299 14.044646
000220 4d d3 e0 40 82 ee dc 40 7d ea de 40 65 47 cb 3f
       7.0257936 6.9041147 6.966124 1.5881163
000230 10 8a e4 40 58 28 db 40 81 b1 e6 40 0f bc 6c 41
       7.1418533 6.848675 7.209168 14.795913
000240 85 36 e7 40 5d 64 e6 40 73 ae cc 40 81 cb 71 41
       7.225405 7.1997514 6.396295 15.112184
000250 80 a5 01 41 b3 09 e7 40 00 48 dc 40 ee 25 5e 41
       8.102905 7.219934 6.883789 13.88426
000260 30 b0 69 41 b2 9b 4f 3f 5d 86 e2 40 70 d5 49 41
       14.605515 0.8109695 7.078902 12.614609
000270 3b 96 e4 40 59 7a e4 40 dc 82 69 41 3b 13 e4 40
       7.1433387 7.139935 14.594448 7.1273475
000280 0a 7c b6 3d 21 26 67 be 04 d7 86 be fb 44 26 be
       0.08910377 -0.22573139 -0.2633592 -0.16237251
000290 27 9d 5c 3c c7 14 d8 3c f3 9f 3c be d9 e2 8e be
       0.013465202 0.026377095 -0.18420391 -0.27907446
0002a0 2a 6d 51 3d 89 c5 aa bd f2 d8 b4 3d 6b f3 8f be
       0.051129498 -0.08338458 0.088304415 -0.281154
0002b0 b8 49 ea bc 61 e7 c9 bd 59 6a 0f be d9 6d 07 be
       -0.028599605 -0.09858585 -0.14005412 -0.13225497
0002c0 44 f9 66 3d 18 4e b2 3d 33 a2 a8 3d c3 0b 9a be
       0.056390062 0.087063015 0.08234062 -0.30087098
0002d0 33 de 94 be 93 23 a1 3d fd db 0f 3e 88 f8 4b be
       -0.29075775 0.07868113 0.14048763 -0.19919026
0002e0 10 7c b2 be 78 2e 20 be 22 82 1b 3e 5d 87 65 be
       -0.34860277 -0.15642726 0.1518636 -0.22414918
0002f0 26 0e 50 be 77 00 ce 3d b3 c2 87 be f4 8f 0e 3d
       -0.20317897 0.100586824 -0.2651573 0.034805253
000300 af 77 58 41 3a b6 57 41 4f 61 50 40 78 79 53 41
       13.52922 13.481989 3.2559392 13.217155
000310 68 ac 78 40 02 6f 5f bf c0 32 da 3e ae 81 85 40
       3.8855228 -0.8727876 0.42616844 4.17208
000320 ce 60 59 41 c7 10 5b 41 71 bc 56 41 ca ff ab 40
       13.586134 13.691596 13.421006 5.3749743
000330 0f fa 58 41 34 6b 52 41 12 88 57 41 82 75 90 40
       13.561049 13.151173 13.47072 4.514344
000340 58 6e 56 41 ab 58 56 41 b8 4e 7e c0 39 87 95 40
       13.401939 13.396647 -3.9735546 4.6727567
000350 b9 f4 39 41 1b a1 57 41 b6 e3 54 41 6f b2 42 c1
       11.622247 13.476832 13.3055935 -12.168563
000360 72 bc b8 c0 cf 56 6b 40 4e a5 54 41 b0 59 c1 3f
       -5.7730036 3.6771734 13.290358 1.5105495
000370 64 9e 57 41 ea 0b 58 41 1b ab 86 40 e3 c4 57 41
       13.47617 13.502909 4.208387 13.485568
000380 8e 8d d4 3d 6f a0 8b bd 00 52 6a bc b5 be db bd
       0.10378562 -0.0681771 -0.014301777 -0.10729734
000390 40 46 99 3b c0 5d a9 3c 67 a8 15 be a0 f1 23 3c
       0.004677564 0.020674586 -0.14615022 0.010006338
0003a0 3d 3b 18 be 6f f5 1f 3e a7 08 93 bd b1 67 fa bd
       -0.14866348 0.15620969 -0.07179385 -0.12226809
0003b0 78 97 2e bd b2 23 fd bd 59 97 90 bd a6 37 fa 3d
       -0.04262492 -0.12360324 -0.07060117 0.12217645
0003c0 88 77 ab bd cc ae 13 be 55 72 1f 3e 0d 52 d8 bd
       -0.08372408 -0.14422148 0.15570958 -0.10562525
0003d0 b0 02 fa bd 5c b6 1c 3d 5e 4c a2 3d a6 fd ad bd
       -0.12207544 0.03825985 0.07924722 -0.08495645
0003e0 ec 64 3d bd b2 ad 01 be 90 ec cd bc fa 2c 05 be
       -0.046238825 -0.12663916 -0.025137216 -0.13005438
0003f0 32 9f bc bd b9 71 15 3e 64 f6 26 bd f7 11 cc bd
       -0.092100516 0.14594163 -0.04076232 -0.09964364

bias f4 [32]
000000 42 da d1 3f 82 30 6e be cb ae 88 40 7c 08 c9 3f
       1.6394732 -0.23260692 4.271337 1.5705714
000010 4c d1 d3 3f 1e 4d 45 be b0 99 71 40 6a 0e 9a be
       1.6548247 -0.19267699 3.7750053 -0.30089122
000020 4c 1c 8d 40 a8 75 77 be dd 5f c0 c1 8f 81 3c c0
       4.409704 -0.24165976 -24.046808 -2.9454076
000030 31 cc de 3f b6 9f d6 3f 37 62 d8 3f 6e f4 da bd
       1.7406064 1.676749 1.6904973 -0.106911525
000040 f5 90 35 42 6a 0a 4f be e6 de 1c be 93 1d c3 c1
       45.39156 -0.20218816 -0.15319404 -24.38944
000050 f6 c6 30 42 8f c9 f4 3f 02 63 54 3f ab a4 d1 3f
       44.194298 1.9124011 0.82963574 1.6378378
000060 31 39 b5 be 7f 23 8c c0 83 7f cd 3f fb 4c c3 3f
       -0.35395196 -4.379333 1.6054538 1.5257868
000070 c2 12 1c be d4 71 08 bf 22 f1 8b 40 e1 74 d3 3f
       -0.1524153 -0.5329869 4.373185 1.6520044

weight f4 [32, 32]
000000 d3 14 ab 40 cc 04 a5 40 2a 43 78 41 a6 15 a5 40
       5.346292 5.1568356 15.516397 5.1588926
000010 2d a1 79 41 2f c4 57 41 e0 56 17 41 0a 94 70 41
       15.60185 13.485396 9.45871 15.036142
000020 b1 8d ac 40 b3 8e aa 40 7b f1 ac 40 6c c5 54 41
       5.3922963 5.3299193 5.4044776 13.298199
000030 09 7d a7 40 48 63 aa 40 2b d6 af 40 f8 a7 72 41
       5.234013 5.3246193 5.4948936 15.166008
000040 c7 eb ae 40 d9 3a a7 40 ff c9 92 3e 6c 6e 74 41
       5.4662814 5.2259336 0.28669736 15.276958
000050 03 bb 54 41 88 97 a7 40 ae ea a3 40 8c a3 75 41
       13.295657 5.2372475 5.1223974 15.352428
000060 cd a5 75 41 19 36 48 41 6e 49 a7 40 2a a9 7a 41
       15.352979 12.513207 5.2277136 15.6663
000070 d8 0b ab 40 d8 c6 a6 40 ed 30 75 41 3a ae a7 40
       5.345196 5.211773 15.324445 5.240018
000080 cb c1 05 be 0d 28 a4 bd 78 87 95 3d f1 14 45 be
       -0.13062207 -0.080154516 0.07301229 -0.1924627
000090 ee 36 0c bd 90 67 a1 bd cf af 2f be 5e c6 c6 bd
       -0.034232073 -0.07881081 -0.1715691 -0.09705804
0000a0 c7 79 9b 3c 23 2b b8 3d 09 a6 d6 3a 32 0f 08 be
       0.018978966 0.08992603 0.0016376387 -0.13287047
0000b0 cb 39 27 3e 45 4e 5b 3e 41 1b 09 3e 57 df be 3d
       0.1633064 0.21416576 0.13389303 0.093199424
0000c0 8c ed 6f 3d dd f3 a8 be 10 34 c5 bc fc 7f 1f 3d
       0.05857615 -0.32998553 -0.024072677 0.038940415
0000d0 7e 45 af bd 40 11 1e bd 78 a2 57 3e 8a 44 12 3e
       -0.085581765 -0.03859067 0.2105807 0.14283958
0000e0 2a 5a c0 bd de a3 ca bd 01 d4 c2 be 84 d5 78 be
       -0.093921974 -0.098945364 -0.3805237 -0.243002
0000f0 7f 5a 29 be 7e 6b 35 be 6e 03 79 be a6 9d 92 3d
       -0.16538428 -0.17716786 -0.24317715 0.07158975
000100 6e 52 33 41 b1 a9 35 41 67 45 96 40 e3 48 31 41
       11.207624 11.353929 4.695972 11.080295
000110 24 67 99 40 04 60 50 41 21 74 d4 bf 49 9e 91 40
       4.7938404 13.023441 -1.659794 4.550572
000120 b2 18 33 41 41 a5 31 41 40 6a 33 41 8a 4b 47 41
       11.193529 11.102845 11.21344 12.455942
000130 5a 28 34 41 2b 7a 2e 41 24 04 35 41 43 f4 90 40
       11.259851 10.904826 11.313511 4.529817
000140 23 2d 31 41 ff 36 30 41 17 58 05 c1 8e c3 8d 40
       11.07352 11.013427 -8.334006 4.4301214
000150 a6 63 9d 3f f1 68 31 41 1c 58 31 41 21 8a 88 3e
       1.2296035 11.08812 11.084011 0.26667884
000160 4a fe 95 40 97 d5 32 41 03 4b 2f 41 4a cf 97 40
       4.687291 11.177146 10.955813 4.744054
000170 50 3f 34 41 6b 03 33 41 ef 13 94 40 7d 7b 32 41
       11.265457 11.188334 4.6274333 11.1551485
000180 ac 40 9a 40 42 fb a3 40 21 06 71 41 84 d9 9a 40
       4.8203945 5.124421 15.063996 4.839052
000190 5e c7 72 41 1c ce 51 41 b4 f2 0b 41 7b 6e 6b 41
       15.173674 13.11282 8.746754 14.714473
0001a0 0a b6 a3 40 32 8e a0 40 27 fd a0 40 75 5d 4d 41
       5.1159716 5.017358 5.0309024 12.835317
0001b0 8a 81 a5 40 68 80 9c 40 cd dc a2 40 10 6c 6d 41
       5.172063 4.8906746 5.089453 14.838882
0001c0 07 b0 9e 40 26 ce 9d 40 30 0f 3b 3e f5 36 6e 41
       4.9589877 4.9314146 0.18267512 14.888417
0001d0 0d 7d 4b 41 05 64 a1 40 58 a2 a6 40 83 da 73 41
       12.71803 5.0434594 5.2073174 15.240848
0001e0 d1 5e 6d 41 e1 a7 41 41 0c 02 99 40 9a 63 6f 41
       14.835649 12.103486 4.7815 14.961817
0001f0 48 fe 9d 40 c3 76 a3 40 bf 17 6b 41 8f 3d a0 40
       4.93729 5.1082473 14.693297 5.0075145
000200 2b 79 93 40 af 58 97 40 04 b8 7c 41 c8 e2 8f 40
       4.608541 4.7295756 15.794926 4.4964333
000210 80 d7 75 41 81 06 5a 41 bf fc 14 41 4a ab 6e 41
       15.365112 13.626588 9.311706 14.916819
000220 af ec 95 40 e7 c3 9c 40 57 b3 98 40 8f 8d 51 41
       4.685142 4.898914 4.771892 13.09706
000230 57 f7 a3 40 8d 81 94 40 c9 de 93 40 3a 69 6f 41
       5.123943 4.6408143 4.6209455 14.96319
000240 af 35 96 40 e6 8c 96 40 45 06 d8 bd aa da 73 41
       4.694053 4.7046995 -0.10548071 15.240885
000250 1c 48 4f 41 76 2a 99 40 e3 87 92 40 f2 33 74 41
       12.955105 4.786433 4.5790877 15.262682
000260 4f 41 75 41 58 76 46 41 ff db 93 40 dc ab 7e 41
       15.3284445 12.4038925 4.620605 15.916958
000270 17 77 96 40 03 f2 99 40 21 8a 74 41 b3 aa 93 40
       4.7020373 4.8107924 15.283723 4.6145873
000280 b3 64 d5 3d 78 51 25 be 93 2c a2 3d b7 4f 39 bd
       0.104195975 -0.16144359 0.07918658 -0.045242038
000290 79 fc 39 3d af 9d 5b be 51 cd e6 bd b4 b7 fc 3d
       0.045406792 -0.2144687 -0.1126963 0.12339726
0002a0 58 6c df bd 90 37 b2 3d 50 de 2b 3e 99 f9 1a bd
       -0.10909337 0.08702004 0.16784024 -0.03783569
0002b0 98 67 70 bd f9 c3 ce 3b f6 8d f9 bd ce bc 26 be
       -0.058692545 0.006309983 -0.1218528 -0.16282961
0002c0 4b f3 b9 3d 78 db 0a be 90 b8 55 bd b0 35 05 be
       0.090796076 -0.13560283 -0.052177966 -0.13008761
0002d0 83 c4 5b be 73 88 db bd 4c da d8 bd f5 82 bf bd
       -0.21461682 -0.10719385 -0.10588512 -0.0935115
0002e0 30 07 64 3d 8f 31 37 bd 3e a0 0a bd d4 09 8c bd
       0.055670917 -0.044724997 -0.033844225 -0.06837812
0002f0 a7 c5 07 3e 0c 32 35 3d f8 9b a2 3d 63 33 64 be
       0.13258992 0.04423718 0.07939905 -0.22285227
000300 db 17 31 41 02 81 33 41 b1 6f 85 40 3d 49 32 41
       11.068324 11.218996 4.169884 11.14288
000310 b2 8f 91 40 0f 4c 54 41 28 30 ef bf 73 d9 87 40
       4.548791 13.268569 -1.8686571 4.245294
000320 d5 27 34 41 dc 5f 36 41 18 25 32 41 5d c0 49 41
       11.259725 11.398403 11.134056 12.609464
000330 1b 37 37 41 3a 10 30 41 9d 5a 32 41 e1 ba 88 40
       11.4509535 11.003962 11.147122 4.2728124
000340 f9 9d 33 41 83 18 32 41 5b 8c 19 c1 fd 5f 8c 40
       11.226068 11.130984 -9.596766 4.3867173
000350 71 48 b7 3f e3 9f 33 41 71 30 31 41 26 43 37 bd
       1.4318982 11.226535 11.0743265 -0.044741772
000360 f5 7b 92 40 d7 45 30 41 f8 1d 33 41 f8 1c 86 40
       4.5776315 11.017051 11.194817 4.191036
000370 96 38 34 41 ed 17 32 41 5f d9 89 40 5b 2a 33 41
       11.263815 11.130841 4.3077846 11.197841
000380 88 9c 73 bc b0 13 0a 3e 37 ab e0 bb eb 4a 1b be
       -0.014868863 0.13484073 -0.006856348 -0.15165298
000390 2b 6f 55 be c2 d5 9a be e2 a6 12 be ee 32 02 3e
       -0.20843188 -0.3024121 -0.14321473 0.1271474
0003a0 87 83 3e 3d 58 78 36 3c 86 d9 e9 3c 0e c4 8b bd
       0.046512153 0.011137091 0.028546106 -0.06824504
0003b0 42 01 e7 3d 84 76 48 be 80 0e f6 3a db cb 57 3d
       0.11279537 -0.1957646 0.0018772632 0.052684646
0003c0 e4 08 f3 bd c2 b9 e2 3d 34 32 1f bd 17 6a 85 be
       -0.1186693 0.11070587 -0.038866237 -0.26057503
0003d0 e2 0b 55 be 9c d2 1b 3d b3 c4 20 3e ff 40 48 be
       -0.20805314 0.03804265 0.15700035 -0.19556044
0003e0 9d 51 83 be 78 84 89 be fd 8e 0c be a0 f8 e7 bd
       -0.25648203 -0.26858878 -0.1372642 -0.11326718
0003f0 e7 14 15 be 3b ff d5 bd 5b a6 06 be c1 00 78 3d
       -0.14558755 -0.10449072 -0.13149397 0.060547594

weight f4 [1, 32]
000000 08 21 1d c0 8f f4 a9 3d a7 93 db c0 ff da 0e c0
       -2.455141 0.08298599 -6.861774 -2.2321165
000010 ca c7 49 c0 ff b6 95 bc 54 9a da c0 5c d6 4f be
       -3.1528192 -0.018275736 -6.831339 -0.20296615
000020 e8 42 ee c0 b8 a0 d3 3c 1a 55 18 41 26 78 a2 c1
       -7.4456673 0.025833473 9.520777 -20.308666
000030 99 bd 53 c0 25 87 0e c0 22 0d 28 c0 79 0e 60 bd
       -3.3084471 -2.2269986 -2.6258016 -0.054701302
000040 5c 5c cc c0 9e 03 66 3d 34 2e 21 be b7 cd 0c 41
       -6.3862743 0.056155793 -0.15740281 8.800223
000050 bc 3b 79 c0 40 26 a5 40 48 eb 2a 40 89 72 18 c0
       -3.894271 5.160919 2.6706104 -2.3819907
000060 bd 24 d3 bd cf c1 b5 c1 7a 10 32 c0 3e 04 20 c0
       -0.10309742 -22.719633 -2.7822556 -2.500259
000070 80 fd e4 3c 12 97 af bc 01 f3 db c0 e8 6b 21 c0
       0.02795291 -0.02143434 -6.8734136 -2.522211

weight f4 [1, 32]
000000 39 89 e6 c0 b0 07 82 bd 03 3a 21 c1 3e 5f ef c0
       -7.204251 -0.063491225 -10.076663 -7.4803762
000010 c7 70 00 c1 39 ca e5 bd 00 76 17 c1 27 9b e0 3c
       -8.027534 -0.112202115 -9.466309 0.027417732
000020 dd 59 1c c1 67 00 13 3d 56 30 ab c0 9d 51 b6 c1
       -9.771939 0.035889056 -5.3496504 -22.78985
000030 c4 ff 03 c1 ea 20 e5 c0 e8 5b fe c0 20 a0 78 be
       -8.249943 -7.160268 -7.948719 -0.24279833
000040 d5 d3 41 c2 7f a2 0e be 6a c6 05 be 6e cd a1 c0
       -48.456867 -0.13929175 -0.1306397 -5.056327
000050 f8 eb 34 c2 01 2a 1e c1 bf 34 17 c1 15 1a f2 c0
       -45.23044 -9.885255 -9.450377 -7.565684
000060 56 85 13 be 2b 18 a9 c1 39 6e 0d c1 c7 3d df c0
       -0.14406332 -21.1368 -8.83941 -6.976291
000070 9b 23 96 bd aa da af bd 13 ac 21 c1 19 5d 02 c1
       -0.0733101 -0.08586629 -10.10451 -8.147729
